resultscheckpoint.pth (torch_old, 496168 bytes, 20 tensors)

conv1.weight f4 [6, 1, 3, 3]
000000 34 4f 70 be 9e f8 94 3e e7 1f 1c be f4 ea 16 be
       -0.23467714 0.2909593 -0.15246545 -0.14738065
000010 9f b5 0e 3e 37 29 7a be 92 8a 4b be d7 c5 0a bd
       0.1393647 -0.24429785 -0.19877079 -0.03388008
000020 6b a5 66 be 70 e7 72 bf 5b ab 6b 3f 97 a6 91 3f
       -0.2252404 -0.94884396 0.9205834 1.1378964
000030 a0 5a 84 be 2b 1f 7f 3f 89 85 3d 3f a3 7f 93 be
       -0.2585039 0.99656934 0.74031883 -0.28808317
000040 53 e7 c4 3e 49 cd 71 3e fa 4e 71 3f ae 0b c4 3f
       0.38457736 0.23613466 0.94261134 1.5316064
000050 75 cd 6d 3e ba e1 8c 3d 4d 23 59 bc 02 aa 81 bf
       0.23222907 0.068789914 -0.013253045 -1.0130007
000060 a5 2b bd bf a3 30 81 bf 2a a6 a3 be a8 f5 82 be
       -1.4778944 -1.0092968 -0.3196271 -0.25578046
000070 b2 26 29 be ff 8c b2 be 8f a6 c0 be 0e 1b 04 be
       -0.16518667 -0.34873196 -0.37627074 -0.12900946
000080 77 45 97 be 4a 9a d1 be 11 d8 07 be 8f f6 1f bf
       -0.29545185 -0.40938026 -0.13266017 -0.62485594
000090 00 7b 7b be fb 70 5f 3f ef 5f 10 40 c5 4a a7 bf
       -0.2455864 0.8728177 2.2558553 -1.3069693
0000a0 a0 3e 69 bf aa 8d d1 3e 39 6b aa bf c8 88 8f bf
       -0.91111183 0.40928394 -1.3313972 -1.1213617
0000b0 18 a6 f2 bf db 3c 09 be ff bd 74 be 05 1a a7 be
       -1.8956938 -0.13402121 -0.23900603 -0.3263704
0000c0 b3 f5 96 bc b0 f7 8b bd c2 5a 76 3d ba 8e b4 bd
       -0.018427705 -0.06834352 0.060145147 -0.088162854
0000d0 17 24 35 3e 51 12 07 3e
       0.17689548 0.13190581

conv1.bias f4 [6]
000000 ba 1c 8a be a5 9c f5 be 6a a4 8f 36 97 e6 3d bd
       -0.26975042 -0.47971073 4.2808724e-06 -0.046362486
000010 c4 c2 66 b8 f6 ea 95 be
       -5.5017663e-05 -0.29280823

conv2.weight f4 [16, 6, 5, 5]
000000 22 5b 0a bc 36 c3 37 bc 74 88 72 3d d1 4e 67 bd
       -0.008444579 -0.0112159755 0.059212163 -0.05647165
000010 d6 27 a3 3d 25 a3 0f bc 10 8f 42 3d bc b0 85 bd
       0.079665825 -0.008766924 0.047499716 -0.0652785
000020 fb 06 9f 3d 9d fb 10 3d 02 37 24 ba 5f 3c 95 bd
       0.07765003 0.035396207 -0.00062643003 -0.072869055
000030 26 de 35 bd 21 fe 70 bd b6 85 12 bd 08 a7 8f 3c
       -0.04440131 -0.058836106 -0.035772048 0.017535701
000040 bc d2 29 bd a4 66 72 bc 5c 3f 82 bd 2c 35 55 3d
       -0.041460738 -0.014794979 -0.06359741 0.05205266
000050 88 64 8a bd cb d1 db 3c 7b 08 9e ba 84 37 67 3d
       -0.06757456 0.026833436 -0.0012056971 0.05644943
000060 c6 91 76 bb 0d 0b 05 3e 87 c8 3c 3e 08 a5 72 be
       -0.0037623509 0.12992497 0.1843587 -0.23695767
000070 e1 6f c2 be 5d 61 6c bf 59 ac e1 bd d3 e0 09 3e
       -0.37975982 -0.92336065 -0.11019201 0.1346467
000080 b3 27 5d 3e 74 92 2f bf f9 e6 79 be 45 d3 db be
       0.21597175 -0.68582845 -0.24404515 -0.42934623
000090 fc d1 40 3e a4 41 fb 3e 57 bc f3 3e 24 13 a7 3e
       0.18830103 0.49073517 0.4760463 0.3263179
0000a0 1b f2 74 bf 83 08 15 bf ee 0d 4e be f2 ed a9 3e
       -0.95681924 -0.5821611 -0.20122501 0.3318935
0000b0 8c 39 19 bf 16 99 a6 bf ba 2c b2 bf f4 6a 9d bf
       -0.59853435 -1.3015468 -1.39199 -1.2298265
0000c0 b0 72 f7 bd fb a4 ec 3e b9 6b 1a 3e 67 c0 1e be
       -0.12082422 0.4621962 0.15080155 -0.15503083
0000d0 09 56 eb 3d 6f 7a cd 3e d9 a7 f3 3e 87 0a bc 3d
       0.11491019 0.40132472 0.47588995 0.091816954
0000e0 f8 93 c0 be bf 26 70 be c0 f6 d7 bd 08 91 bd 3c
       -0.3761289 -0.2345228 -0.10545111 0.023140445
0000f0 b4 d6 36 3e 65 9d 58 be 53 84 a4 3d 9f fb 40 3e
       0.1785534 -0.21153791 0.08033051 0.18845986
000100 33 bb b0 3e 63 1d f3 bd 62 e4 b0 be 2e 68 14 ba
       0.34517822 -0.118708394 -0.34549242 -0.0005661276
000110 89 7b f7 3d 8a 8d e4 3e ae 78 c9 bd ec 0f 1f be
       0.12084109 0.44639236 -0.09837471 -0.15533417
000120 2d 0a cb 3b d7 11 94 be 36 c2 7a be ab 98 b6 bc
       0.0061962814 -0.2891986 -0.24488148 -0.022289595
000130 1f 2f 98 3d 28 7b 0f 3d 81 bd 46 3e 0d 25 e6 3d
       0.07430863 0.03502956 0.19408228 0.112375356
000140 b0 7a 31 be 06 c4 76 be 98 92 4f be c5 ad 40 be
       -0.17331958 -0.24098215 -0.20270765 -0.18816288
000150 9e 11 b4 bd 35 c4 3e 38 28 2a a9 bd 38 b7 61 be
       -0.08792423 4.5482262e-05 -0.08259994 -0.22042549
000160 51 53 5f be 56 b9 63 be 3d a4 ba 3d c0 98 a2 3d
       -0.21809126 -0.22238669 0.09113357 0.07939291
000170 10 1b 10 3e 67 66 db bd 0c d0 2c be 2e 2c 48 3e
       0.14072824 -0.10712891 -0.16876239 0.19548103
000180 60 76 8c 3e 98 e8 70 3e 74 a5 9a 3d 6f c7 14 be
       0.27434063 0.23526227 0.07551089 -0.14529203
000190 94 48 3a be 3e 2a 1c bf 56 68 c7 be 14 32 ab be
       -0.18191749 -0.61001956 -0.3894679 -0.33436644
0001a0 0f 2a f4 bd df 63 0c bd 5d 01 aa 3e c1 c5 4b 3e
       -0.119220845 -0.034274932 0.33204165 0.19899656
0001b0 83 21 8c 3d 7a 3c 9e bc fb 0d 95 3e 74 ce e1 3e
       0.06842329 -0.019315947 0.2911223 0.44102824
0001c0 69 ff 0c 3f 1f 9b f6 3e 4a eb dc 3e 6f 12 b8 3d
       0.55077225 0.48165223 0.4314826 0.08987891
0001d0 59 70 ea 3d 50 fe 0a be 25 3d 87 3e 0d f0 34 be
       0.1144721 -0.13573575 0.26413837 -0.17669697
0001e0 a3 c3 90 3b 2b 3a 69 3c de 62 91 be 7b 6c da be
       0.004417853 0.01423506 -0.28395742 -0.4266089
0001f0 8d 85 47 bf b5 f9 27 bd 9c 9e 60 3d ea c8 3d bd
       -0.7793816 -0.041009624 0.05483876 -0.046334185
000200 a4 e6 4c 3d ce bc b5 bc fb ff 79 3d db 66 04 3e
       0.050024644 -0.022184756 0.061035138 0.12929861
000210 32 2c 8d bc 6e 04 44 3c 86 f6 6d bd 66 f8 38 bd
       -0.017232988 0.011963947 -0.05809643 -0.045158766
000220 43 60 a4 3c 64 de ac bd 06 53 83 bb 31 d8 2d 3d
       0.020065432 -0.08440855 -0.0040077 0.042442504
000230 71 af 85 3d d8 b6 45 3d 7e 95 2e bc 3f f5 b9 3c
       0.065276034 0.048270077 -0.010655759 0.02269995
000240 cb 94 c4 bc af f6 16 bd 4f 75 e4 3c 70 6e b0 3c
       -0.023996731 -0.03685635 0.027887968 0.021537036
000250 4e 86 67 bd b3 1e ba bb dc 74 84 bd b0 c1 95 3d
       -0.056524567 -0.005679929 -0.06467602 0.073123336
000260 82 ab 8c 3d 5e fd 88 bd ed 83 a9 bc ed 4d 9c bd
       0.0686865 -0.06688951 -0.02069279 -0.07632051
000270 98 4a c9 bc 47 50 6f 3d 4b e9 5a 3c 6b e2 cb bc
       -0.024571702 0.058426168 0.013361285 -0.024888238
000280 86 f6 84 3c 00 56 d3 3c 5e 7b 9f 3d 08 08 c7 3c
       0.016230833 0.025797844 0.07787202 0.024295822
000290 1d 9d 23 bd 6c 04 86 bc 09 8c 52 bd 2f d0 8c 3d
       -0.039944757 -0.01635953 -0.05140308 0.06875645
0002a0 19 84 99 bd e8 f3 87 bd b7 50 0b bd 3c 3a 24 bd
       -0.07495899 -0.06638318 -0.034012523 -0.0400946
0002b0 dd cc 8a bd 16 17 72 bc 6b 71 1c bd 60 0e ad be
       -0.06777356 -0.014776012 -0.0381941 -0.3380003
0002c0 f6 99 f1 3e af 7e 1b 3f 71 0b a4 bd c9 80 5f be
       0.47187775 0.6074018 -0.08009995 -0.21826471
0002d0 63 e2 b8 be 78 10 b9 3e a7 49 d4 3d 76 87 9c bf
       -0.3611022 0.36145377 0.103656106 -1.2228839
0002e0 a0 5b 38 be c9 10 df be 6f 72 5b be 92 b4 a3 bf
       -0.18003702 -0.43567494 -0.21430372 -1.2789481
0002f0 05 50 7b bd 8b 82 04 3f 78 1c 2d bf 0b 06 68 bf
       -0.06135561 0.5176169 -0.67621565 -0.9063422
000300 74 38 9a 3d b5 20 e6 3e 0a 41 44 3e 84 b3 3b bf
       0.07530299 0.44946828 0.19165435 -0.73320794
000310 47 09 3f bf d6 53 96 3e 41 a5 33 be 55 15 e7 be
       -0.7462353 0.29360837 -0.17543508 -0.45133463
000320 8e 13 75 be d4 d7 9e bd 68 cd 5a be 54 be 08 3e
       -0.23933241 -0.0775601 -0.21367419 0.13353854
000330 16 60 9f 3e 14 92 80 3d fc 55 41 3e fc a8 d0 3e
       0.31127995 0.06277862 0.18880457 0.40753925
000340 71 4a 00 3e 77 23 94 be 9b 84 4d bd cc 8e 98 3e
       0.12528397 -0.28933308 -0.05017529 0.29796445
000350 2b d8 2d 3e 66 fe ed be 7d d0 36 be b6 1b c4 be
       0.16976993 -0.46483153 -0.1785297 -0.38302392
000360 32 4e 6b be 33 f2 df be 09 18 88 be fc fe f0 3e
       -0.22979048 -0.4373947 -0.26580837 0.47069538
000370 ad 01 b9 be 2e 37 2e be 97 de 2b be 58 ac 32 3e
       -0.3613409 -0.17013237 -0.1678413 0.17448556
000380 62 50 51 be e1 df b6 bd 28 79 33 be d7 2e 6f be
       -0.2044082 -0.0892942 -0.17526686 -0.23357712
000390 fb a0 67 bc c1 39 91 bc 29 4b 89 bd eb d0 aa bd
       -0.014137502 -0.017727735 -0.06703789 -0.08340629
0003a0 fb 20 c9 3d 3c 34 dc bc d8 83 4a bd 80 4a f3 3d
       0.09820744 -0.026880376 -0.049442142 0.11879444
0003b0 d9 03 b9 3d 2e 7d d5 3d 02 d6 ce bd 4f 91 9c be
       0.09033937 0.10424267 -0.100994125 -0.30579612
0003c0 b4 b0 c0 3d 92 d7 1c 3e a6 8e d3 3b 98 43 82 be
       0.094087034 0.15316609 0.006456214 -0.25442195
0003d0 11 23 90 be 5d a4 6b bd be a8 04 3e 8b 84 89 bd
       -0.28151754 -0.057529796 0.12954995 -0.06714734
0003e0 2f 54 18 be 62 50 93 bd 3b 68 e5 be 65 ac d5 be
       -0.14875863 -0.07193066 -0.44806084 -0.4173309
0003f0 92 ff 54 be 56 16 83 be 4a 4f 35 3f 19 34 99 3e
       -0.20800617 -0.25602978 0.7082411 0.2992256

conv2.bias f4 [16]
000000 c6 c4 39 bf 23 51 a2 be 3d 7a b5 bf 80 b1 f7 bc
       -0.7256588 -0.31702527 -1.4177929 -0.030236006
000010 68 57 d3 be d6 62 2c 3f 4c ee d7 bd de d5 c9 be
       -0.41277623 0.6733831 -0.105434984 -0.3942098
000020 f0 4a 65 be a2 40 75 bd 9d 09 6b bf 77 d6 65 be
       -0.22391868 -0.05987609 -0.91811544 -0.22445093
000030 54 6a 47 bc d8 c6 25 bf cc ea 2b bf b5 95 3b be
       -0.012171347 -0.64756536 -0.67155147 -0.18318827

lin1.weight f4 [120, 400]
000000 da 87 31 bd 5f 60 39 be ba ec 16 be 30 f8 0e be
       -0.04334245 -0.18103169 -0.14738742 -0.13961864
000010 f5 18 2f bd 95 e9 a9 3d ac 85 79 bc 99 70 7e 3d
       -0.04274841 0.08296505 -0.015229624 0.0621191
000020 30 63 14 bc d1 0e 8b bd 49 ef aa 3e 0e 01 92 3d
       -0.009056851 -0.067899354 0.33385685 0.071291074
000030 c3 29 1b 3e 6d 9b 08 3e 82 dd 43 bd 2c 2e c0 bd
       0.1515265 0.1334054 -0.04781867 -0.093838066
000040 a7 34 c3 bd b9 9a 20 be de cc c2 bd 33 9d 02 3e
       -0.09531527 -0.15684022 -0.095117316 0.12755279
000050 6f 15 aa be fb d4 c6 be 5c 52 8d be 77 a4 6c be
       -0.33219478 -0.38834366 -0.27601898 -0.23109613
000060 b3 a5 2c be 91 a1 02 be 7d 7e 2f be ba d8 c5 bd
       -0.16860084 -0.12756945 -0.17138095 -0.09660478
000070 c8 d5 5a bd c1 cb 0e bc d1 e1 92 be e0 5e 51 be
       -0.053426534 -0.008715571 -0.2868791 -0.20446348
000080 e0 51 30 be c6 71 ee 3c 7a b5 57 bd 5e 11 eb bd
       -0.17218733 0.029106986 -0.052663304 -0.11477922
000090 f5 41 3e 3a 6d eb 2b 3e 78 f1 c5 bd 1f 96 0c be
       0.0007257753 0.16789027 -0.09665197 -0.13729142
0000a0 ec 03 00 3e d8 e4 4a 3e a8 dd 39 bd 1f 79 00 bd
       0.12501496 0.1981386 -0.045377403 -0.03136551
0000b0 15 92 f6 3c ef 13 df bd 94 df b0 3c 61 c7 53 3c
       0.030098954 -0.10892474 0.021590985 0.012925954
0000c0 c9 e6 70 be b6 b4 8f bd 47 9d 77 3d 75 b9 ca 3d
       -0.23525538 -0.0701689 0.060452726 0.09898654
0000d0 fb 53 89 bd 9a 6d 18 3e 00 f1 0e 3e 5e 41 0a 3e
       -0.06705471 0.1488556 0.13959122 0.13501498
0000e0 ec e0 ea 3d 75 2a a4 3d 9c 32 aa 3d b0 9a e2 bc
       0.11468682 0.080159105 0.08310434 -0.027661651
0000f0 05 5c 9c bd bd 13 64 3d 04 3c ff 3d 3d 60 a3 3d
       -0.07634739 0.055682886 0.12462619 0.0797734
000100 96 9a 80 bd 65 29 11 3d 93 bd 75 3d a1 99 4f 3c
       -0.06279485 0.035439868 0.059995245 0.012670905
000110 89 74 5c bd 5b 06 24 bd 28 36 22 be a6 49 1a be
       -0.053822074 -0.040045124 -0.15840971 -0.15067157
000120 14 6c dd 3b b0 17 35 bd 7b 38 6b 3b 1a 32 aa 3d
       0.0067572687 -0.044212043 0.003589182 0.08310337
000130 cd 94 a5 3d d1 3f c4 bd f1 0e 40 bc 6f 5f 9d bc
       0.08085022 -0.095824845 -0.011722312 -0.019210545
000140 6c 99 19 be 3e 85 9f bd 9c 1d 93 bd bd f1 d9 bd
       -0.14999932 -0.07789086 -0.07183382 -0.10641811
000150 fc e1 74 3a 94 39 d1 bd 50 b0 67 bd 14 b6 1c 3d
       0.00093415356 -0.1021606 -0.05656463 0.03825958
000160 8b 1a b9 3c a7 85 d4 3d c2 92 45 3d bf c6 26 3e
       0.022595664 0.10377055 0.048235662 0.16286753
000170 3c 02 74 3d 49 3b a5 3d 69 09 d7 bc 8d 3e 54 3e
       0.059572443 0.08067948 -0.026249604 0.20726986
000180 fb 24 03 3e bf 8b c3 3d 44 93 b7 3c 0a 3a b3 bd
       0.12807076 0.09548139 0.022409089 -0.087513044
000190 02 dd 12 be b4 7e 0b be 69 83 cd 3c d1 66 98 3d
       -0.1434212 -0.13622552 0.025087075 0.07441486
0001a0 d8 03 81 bc 50 ad a8 3d 44 48 2f 3e a3 e9 0d 3e
       -0.015748903 0.08236182 0.17117411 0.13858657
0001b0 9a 3c 02 3d dc ed d1 bd 8e 23 28 bd 06 f9 44 be
       0.031796075 -0.10250446 -0.041049533 -0.1923562
0001c0 49 0a 24 bc 3f 20 69 3d 7e a0 0c 3d e0 2f ad bd
       -0.010012218 0.056915518 0.034332745 -0.08456397
0001d0 11 9d 12 bb 35 a8 48 3b 68 84 94 3c 3e 7a ce bd
       -0.002237145 0.0030617837 0.018129542 -0.100819096
0001e0 fb dc 93 bd dd 10 69 be 2d 36 bf 3c b2 19 02 bd
       -0.07219883 -0.22760339 0.023341263 -0.031762786
0001f0 2d 63 c3 3b 7f a3 d3 bd b1 36 3a be 6a 0a 54 bd
       0.0059627504 -0.10333919 -0.18184926 -0.051767744
000200 eb cd cf bd 6f 6e 18 bd e4 a5 02 be d5 c6 ac 3d
       -0.101466976 -0.037214693 -0.12758595 0.08436362
000210 07 31 37 bd 20 b2 0d be 1f 00 29 bd 95 2e f7 bb
       -0.04472449 -0.1383748 -0.04125988 -0.007543395
000220 1e 04 6f 3d ca 9b 61 3d 11 83 0f bd db 3a 4e 3b
       0.058353536 0.055080213 -0.035037104 0.0031468186
000230 db c7 e6 3c 98 dc da bd 2f 6f 03 bd 64 46 f7 bc
       0.02817147 -0.10686606 -0.032088455 -0.030184932
000240 37 b0 4d bd ac 3b 4c 3d a1 0a 8d 3e 57 4b 83 3e
       -0.05021688 0.049861595 0.27547172 0.25643417
000250 8e 80 a8 3e 94 d3 fb bd 58 78 25 bd 82 75 18 bd
       0.3291058 -0.12296215 -0.040397972 -0.03722144
000260 15 68 b0 3c 7d 7a 14 3d 37 6b 73 bc 0b 20 fd 3b
       0.021534005 0.036249626 -0.014857105 0.007724767
000270 be cf 29 bb b3 ae b2 3b 41 eb 11 3c 8f 28 07 3b
       -0.0025911178 0.0054529547 0.008906187 0.002062354
000280 f6 2f 2f bd d6 08 60 3d 3c cc 94 bc 9c ca 2f bc
       -0.04277035 0.054695927 -0.018163793 -0.010729458
000290 bd 4f 14 3c 55 72 d8 3c 5c 73 30 3d d8 4e 89 bc
       0.009052214 0.026421705 0.043078765 -0.016761228
0002a0 0c cd 32 3c a9 a6 fd 3c 53 54 aa bc 5b 87 f8 b9
       0.010913145 0.030963259 -0.020792162 -0.00047403094
0002b0 ed ff 2d bd 7b a2 4c bd 73 c6 35 b9 28 65 3d 3d
       -0.042480398 -0.04995964 -0.00017335433 0.04623905
0002c0 6f 0b 29 3e c2 4a 1a be 76 25 2a be b4 b9 78 be
       0.16508268 -0.1506758 -0.16615853 -0.2428959
0002d0 11 f6 7f 3e 53 ce 0e 3e 87 a7 fa 3d 68 44 fe 3d
       0.2499621 0.13945894 0.122389846 0.12415391
0002e0 98 f7 0d be da b0 88 3b aa 17 04 3e 2c 19 4b bd
       -0.13863981 0.004171473 0.12899652 -0.049584553
0002f0 71 fc fc bc f0 1d a0 3d e9 91 f3 bd 3a 60 df bd
       -0.030882092 0.0781821 -0.118930645 -0.10907026
000300 fa 9c 08 be ea c7 14 be 2d 60 a9 3c af 95 bb bd
       -0.13341132 -0.14529386 0.020675743 -0.09159409
000310 49 07 86 be 5b 7b fa bd 14 3d 40 bd 9f 7a 4d be
       -0.26177433 -0.122305594 -0.04693325 -0.20066307
000320 78 86 df 3c 03 0c 1d 3d e2 78 71 3c 85 03 52 3d
       0.0272858 0.038341533 0.014738293 0.051272888
000330 33 c7 03 3d ba 67 17 3d 79 71 80 bc 2a 84 26 3c
       0.032172393 0.036964156 -0.015679108 0.010163346
000340 5b 7e a6 3d 3b f5 55 bd 6c 9d 9a 3d 85 79 e5 3c
       0.08129569 -0.052235823 0.07549557 0.028012047
000350 90 be 83 3c 10 78 96 3d 2d 46 ff 3b e8 b8 99 3b
       0.016082078 0.07347119 0.007790348 0.004691232
000360 90 d7 0c bd 4a d0 df 39 05 ac 89 3b 64 9a 3d bd
       -0.034385264 0.00042689062 0.0042014145 -0.046289816
000370 e8 35 89 bd 5d a7 b0 bc 50 9b 30 3c 04 f4 5f bc
       -0.06699735 -0.02156418 0.010779217 -0.013669018
000380 e8 cd 67 3c c0 43 65 bd d9 58 df 3d cd 54 ab 3e
       0.014148213 -0.055972815 0.10905618 0.33463135
000390 62 1a fc 3d ee 39 62 3d 3b 90 05 3e 0d 0e ba 3d
       0.123097196 0.055231027 0.13043301 0.09084711
0003a0 44 5e cc 3c 83 30 56 bd bd 18 64 bd ef 85 c6 bc
       0.024947293 -0.052292358 -0.055687655 -0.024233786
0003b0 bc 35 2d 3d 6d cf 3a 3e 4f 42 f6 bc 36 43 09 bc
       0.042287573 0.18243189 -0.030060915 -0.008377841
0003c0 90 ce 22 3e e4 7e 16 3e 8c 79 25 3c bd 66 58 bd
       0.1589911 0.14696842 0.01009978 -0.052832354
0003d0 63 9c 81 bd 18 41 1c 3e 62 9c b8 3d 64 a1 ef bd
       -0.063286565 0.15259206 0.09014203 -0.11700705
0003e0 5b 40 3b 3d c2 ee 6a 3e b7 e5 b8 bd 5f fd 8b bd
       0.04571567 0.22942641 -0.0902819 -0.06835436
0003f0 00 93 eb 3d 00 6c c8 bd 0e f7 c7 bc 9f 3a 4e bd
       0.115026474 -0.09786224 -0.024409797 -0.050348874

lin1.bias f4 [120]
000000 0e b4 88 bd 10 40 b2 bc 75 e3 5d be 63 98 70 bc
       -0.06674968 -0.021759063 -0.21668799 -0.014684769
000010 d9 ad 28 3c c3 e9 53 3c 3e fb 9b 3d 7f 5f 8c 3d
       0.010295355 0.012934151 0.0761628 0.06854152
000020 5b 88 b5 bd f9 f9 2d be 3c 37 f7 3e 99 3f 56 bc
       -0.08863898 -0.16989888 0.48284328 -0.013076686
000030 21 82 99 3c 85 1a 84 3c cd ea 78 bd ae 94 4f bd
       0.018738808 0.016125927 -0.0607708 -0.0506789
000040 98 f6 94 bc 0d 0e c3 bc c3 f1 de 3c 44 6a b2 3d
       -0.018183991 -0.02381041 0.02721489 0.08711675
000050 e8 da 90 bd 32 55 54 bd 4b a7 94 39 cb ca 74 bd
       -0.07073003 -0.05183906 0.00028353403 -0.05976371
000060 e5 6a ca be 27 03 25 be df a3 f1 bc 50 8a f8 bb
       -0.3953468 -0.16114484 -0.029497085 -0.0075848475
000070 8a dc e0 3d fe 39 44 be db ae 8c 3b 7f 09 ba bd
       0.109795645 -0.19162747 0.0042933053 -0.090838425
000080 61 34 90 bd 5d 70 f2 ba de 09 f7 3d 61 cd ed bc
       -0.070412405 -0.0018496622 0.12062429 -0.029028596
000090 58 64 0a 38 74 48 9c bd 6d 71 b3 bd 6a 6b 3f 3a
       3.2995216e-05 -0.07631007 -0.087618686 0.0007302078
0000a0 8b cb 07 be 0b 96 df 3d 54 2d 72 3c 08 28 b3 bc
       -0.13261239 0.1091729 0.014781315 -0.021869674
0000b0 27 1b d4 3d 31 04 54 3b f9 ef e4 3d 22 74 1d be
       0.103567414 0.003235113 0.11178584 -0.15376332
0000c0 ec 91 72 bc 00 3f cc bc b0 bd 4d be 9e 00 0a 3d
       -0.014805298 -0.024932384 -0.20091891 0.033691995
0000d0 36 41 2a 3e 2e b1 02 3b 13 50 bb bd 01 42 1d 3e
       0.16626438 0.0019942033 -0.09146132 0.1535721
0000e0 de bd fc bc 13 cc 7f 3c e5 15 ed bc b1 c1 b6 bc
       -0.030852254 0.01561262 -0.028941104 -0.022309156
0000f0 07 64 5c 3c 5d 60 11 bd 88 44 16 bd d6 cf b8 bd
       0.013451583 -0.03549229 -0.03668645 -0.090240166
000100 2b ed a4 bc 59 36 46 3d 44 6c cb 3d ac 39 a9 3c
       -0.020132622 0.048391674 0.099327594 0.020657383
000110 93 5d 63 bd 60 40 19 3d b9 9f ee bd 47 4f 95 3b
       -0.05550916 0.03741491 -0.116515584 0.0045565697
000120 c9 9b 28 be e1 5d 6b bc f3 7b ab bd e5 59 27 bd
       -0.16465677 -0.014365644 -0.08373251 -0.040857214
000130 f1 2c 39 bb 6a c1 a7 3d 3f 86 5e be 2a c7 63 bd
       -0.0028255547 0.08191188 -0.21730898 -0.05560986
000140 17 dd 6c 3d 36 ea 49 3c e5 98 62 be 7f db e3 3c
       0.057828035 0.012323907 -0.22128637 0.027814625
000150 2c 40 b7 bd 6b 9f 33 3c 27 38 42 3c e3 98 85 3d
       -0.08947787 0.010963301 0.011854208 0.065233015
000160 fd 46 23 bc 0a 80 23 be bb da fd 3d 40 31 12 3c
       -0.009965655 -0.15966812 0.12395235 0.008922875
000170 60 7d 12 3e 0c 62 05 be 1b ca 8a bc d0 98 2e 3c
       0.1430564 -0.13025683 -0.016942075 0.0106565505
000180 13 9b 56 bd 1a 56 59 bc 5e 77 a3 bd 21 ec 8e 3d
       -0.052393984 -0.013265157 -0.07981752 0.06978632
000190 81 7f c4 bc 81 95 18 bd 56 f1 cf bc 03 3c 0b 3b
       -0.02398658 -0.037251953 -0.025383633 0.0021245487
0001a0 55 ce 0b bd df 92 46 be 16 0c 39 bd f6 4d 60 bd
       -0.03413232 -0.19391964 -0.04517754 -0.05476185
0001b0 fe cf 47 3e c1 e6 b0 3c bd 10 74 bd 18 d2 b9 3d
       0.19512936 0.021594407 -0.059586275 0.09073275
0001c0 cd 0e 0c 3d f3 11 ee bc 71 bb f9 bd 97 2a 66 3d
       0.034193803 -0.029061293 -0.12193955 0.05619296
0001d0 8d 2f b5 39 0e e8 8f bd 90 c1 0b be 39 45 34 3d
       0.00034558438 -0.07026683 -0.13648057 0.04401133

lin2.weight f4 [84, 120]
000000 88 60 92 bc ec 28 6f bc 7a 1e a1 bd 87 e3 0e 3c
       -0.017868295 -0.014597159 -0.07867141 0.008721239
000010 3e ad b3 bd ca 13 35 3c 74 ac 65 bc 9e 73 e4 3c
       -0.08773278 0.011052081 -0.014018167 0.027887162
000020 17 1a aa bc cf bc e6 bd b0 7a 53 bd 07 53 2c bc
       -0.020764394 -0.11266481 -0.051630676 -0.010517842
000030 b0 a4 8d 3d e8 4c ab bc b0 c5 2d 3b 3c 1d 93 3d
       0.06916177 -0.020910695 0.0026515536 0.071833104
000040 75 cb 7e bd bd a3 3b 3d bc 51 e7 3d b4 9d 25 be
       -0.06220575 0.04581045 0.112948865 -0.1617344
000050 fd 13 df bd 1b 4f a3 3c 32 86 77 bc 3c ec ad bd
       -0.10892484 0.019935181 -0.015107678 -0.08492324
000060 4a ec 93 bd 8f 5c 04 3c 3c cb 92 bd 40 5e 5f 3d
       -0.07222803 0.008078708 -0.0716767 0.054533243
000070 ee 89 6d bd e9 d5 a0 bd 97 d5 de bd e9 23 23 bd
       -0.057992868 -0.078533 -0.10880583 -0.03982917
000080 17 42 1d be 9c 34 c3 3d 06 ee ca 3d d6 8d 44 3d
       -0.15357243 0.09531519 0.099086806 0.047986828
000090 9a 7f 33 3d b4 b6 65 3c 8d d4 05 be 5e e7 c4 bc
       0.043822862 0.014020611 -0.13069363 -0.024036106
0000a0 c4 d0 e3 bc ac 1a d8 bd 83 8a 3d bc 44 d4 2f 3c
       -0.027809508 -0.10551962 -0.011568668 0.01073176
0000b0 08 36 c6 bd bf 1a 5f 3e b3 4f b0 bd a5 d8 dd 3c
       -0.096782744 0.21787547 -0.086089514 0.027080843
0000c0 ef fb 06 bd bb 4d 3c 3e f8 2e 2d bd f0 dc fb bc
       -0.032955106 0.18389027 -0.04228112 -0.030745
0000d0 11 1b 2a 3c bb 8d f0 3d fb e8 6b 3d 10 f8 d4 bb
       0.01038243 0.11745783 0.057595234 -0.006499298
0000e0 70 54 76 bd 5a 79 5f bd 01 58 2e 3c 04 ef 22 bd
       -0.06013912 -0.05455909 0.010641099 -0.039778724
0000f0 a5 63 18 bd d5 7a aa bd 84 82 83 bb 27 af b2 3d
       -0.037204403 -0.083242096 -0.0040133614 0.08724814
000100 ac 74 ed 3d 95 5b 83 3d b4 01 62 bd 2e 5c 92 bd
       0.11594519 0.06413952 -0.055177405 -0.07146488
000110 39 05 6e bd 43 0e 0e bd 4b 53 40 3d 7b 1e 05 3d
       -0.05811045 -0.03468157 0.046954434 0.03249977
000120 8a 50 b5 bd 03 5f 41 bd 75 05 44 bd 1c 2f 0b be
       -0.08853252 -0.04720975 -0.047856767 -0.1359219
000130 cc e6 8b 3b e6 02 fa bd 4c f7 ad bd 03 eb 10 bd
       0.0042694565 -0.12207584 -0.08494434 -0.035380375
000140 d4 07 c3 bc 70 15 fe 3c a0 a3 a8 bd 34 3e d6 3b
       -0.023807444 0.031016082 -0.08234334 0.006538177
000150 50 25 1f 3e 80 45 12 3d 33 91 bd 3d 4e e6 ed bd
       0.15541577 0.03571081 0.0925621 -0.11616193
000160 af a5 16 be 15 e8 c3 3b 22 b6 d4 bd 2a 26 ea bc
       -0.14711641 0.005978594 -0.103863016 -0.028582651
000170 38 4b 74 bd 18 ed 06 bc 7b 71 01 bd dc 49 3a bc
       -0.059642047 -0.0082352385 -0.031602364 -0.0113701485
000180 22 19 11 3c 70 a9 8b 3b a5 c8 30 be 22 0a 99 3d
       0.00885609 0.004262142 -0.1726404 0.07472636
000190 04 ab 5a 3d c3 ee 40 bd e8 e4 d4 3d 72 f5 07 3e
       0.05338575 -0.0471027 0.10395223 0.13277224
0001a0 e2 ae ad bd a6 2e 96 3c af c1 9c 3d 65 25 6d 3d
       -0.08480622 0.01833279 0.0765413 0.05789699
0001b0 0f b0 ad bd 7a 16 38 3e 1b 26 8c bd d3 ef 50 bd
       -0.08480846 0.17977324 -0.068432055 -0.051009964
0001c0 f1 c0 98 bd ad d1 d0 3d 6c 1b 0f 3b a2 84 96 bd
       -0.07458676 0.101962425 0.0021836413 -0.073495165
0001d0 1b 07 34 3c 43 92 9d bd 21 ec 31 3d ea 71 ce 3d
       0.010988022 -0.07693913 0.04343808 0.10080321
0001e0 f9 b2 95 bc 78 85 c8 3b 72 ad 97 3c 0b 93 db bd
       -0.018273817 0.0061194263 0.018515322 -0.107214056
0001f0 aa a3 76 bc f7 d7 52 3c d0 07 aa 3c 83 d6 11 bd
       -0.015053669 0.012868873 0.020755678 -0.035604965
000200 0b 0a a9 be c3 e7 ab bd c9 8f dd 3c 49 69 9d 3d
       -0.33015475 -0.083938144 0.027046101 0.07686097
000210 cd a1 a8 bc b5 27 a5 bd 8c 72 58 bd ef 42 f3 bc
       -0.020584965 -0.08064214 -0.052843615 -0.029695002
000220 a3 65 4d bd 1f 8d 0e be 3a ee 6e 3d 73 1d 3b 3e
       -0.050145756 -0.13921021 0.05833266 0.18272953
000230 18 9e c2 3c e2 b8 a1 3c b2 29 ae 3d 6d 33 b7 bb
       0.023757026 0.01974148 0.085040465 -0.005590847
000240 79 ca a3 bd b0 64 ed bc 4c 6d f9 bc 63 33 98 bd
       -0.07997603 -0.028978676 -0.030447625 -0.07431676
000250 da cc 0f be ef ed 8b bd c7 36 31 3e df 40 c6 3c
       -0.14042988 -0.068324916 0.17306052 0.024200855
000260 fd ed 02 be d1 d1 f0 3b c7 e6 4a 3c 88 b9 68 3d
       -0.12786098 0.007349231 0.012384123 0.05681756
000270 47 1c 1b be c5 1f bf bd d4 7f 95 3d 58 a9 f9 bc
       -0.15147506 -0.093322314 0.07299772 -0.030476257
000280 2e d2 f4 bc 3f 1d 63 bd f7 1d 2a bc b7 5e dd 3c
       -0.029885378 -0.055447813 -0.010383121 0.027022703
000290 09 7d 9c 3b 1f 4a 65 bd 24 17 77 3d 37 c7 03 be
       0.0047756475 -0.05597889 0.060324803 -0.12868963
0002a0 51 8e a5 3c 72 08 4f 3d 1e 8e 36 be e4 8d f7 bc
       0.020209463 0.050545163 -0.17827651 -0.030219026
0002b0 01 d3 4a 3c 11 be d5 bc bf fa 69 bd 6e b8 cb 3d
       0.012379409 -0.026091607 -0.057123896 0.099472865
0002c0 91 c1 63 3d 49 6f f0 bd 5e 50 96 bd da 18 1c bd
       0.05560452 -0.11739976 -0.073395476 -0.038109638
0002d0 f7 6f 76 3d 3c 83 cb bd 08 65 98 bd 27 cd 5b be
       0.06016537 -0.0993714 -0.07441145 -0.21464978
0002e0 22 06 aa bd 04 46 97 bd e8 cf 44 bd b1 0f 6c 3c
       -0.08301951 -0.07386401 -0.048049837 0.014408038
0002f0 d4 ab 19 be bb e8 86 bd ce 32 4d bd 2b 19 cf bd
       -0.15006953 -0.065873586 -0.05009728 -0.10112222
000300 b9 b2 eb bd 79 07 1c 3d a0 f7 85 3d cd 73 39 3e
       -0.11508698 0.038093064 0.06541371 0.1811058
000310 61 eb 8e 3d 00 58 31 bd 1a 51 9f bd 3c 89 a4 3b
       0.06978489 -0.043296814 -0.07779141 0.0050212424
000320 39 eb 65 3c 3e 39 7b bd 89 52 47 be 45 a0 9a bd
       0.014033132 -0.061333887 -0.19465078 -0.075501
000330 3b ac 0c be 12 84 d9 bc f9 07 5f bd e2 9b d2 bd
       -0.13737576 -0.026552234 -0.054450963 -0.102836385
000340 56 ef b4 bd 9e c8 99 3c cd 38 50 3d 9d b2 12 3e
       -0.08834712 0.01877242 0.05083542 0.14325948
000350 32 3e 6c bd d3 5e 9c bc c3 f1 78 bd e4 23 11 bd
       -0.0576765 -0.019088184 -0.060777437 -0.03543462
000360 63 29 31 bc 06 5d 2e 3d 47 c4 cb bd 02 f7 58 3d
       -0.01081309 0.042569183 -0.09949546 0.05296994
000370 8b 69 6a 3d fd 84 ee 3b 39 b6 50 3d 57 f3 ea 3d
       0.05722956 0.007279037 0.05095503 0.11472195
000380 97 4f 2d 3e 9f d6 a9 3d 23 89 08 3c a7 a9 a3 3c
       0.16924892 0.08292889 0.008333477 0.019978357
000390 46 81 72 3d b0 c6 75 3d d0 bb 8f bd d2 d7 9e bd
       0.059205316 0.060003936 -0.07018244 -0.07756008
0003a0 37 00 c3 bc a5 3e b5 3d 9d 4b 82 3d fa 30 90 bd
       -0.023803813 0.08849839 0.06362078 -0.070405915
0003b0 f6 48 30 bd aa 7f 90 3d 18 e8 af bd 3a 5d 79 bd
       -0.04303833 0.070556 -0.0858919 -0.060879923
0003c0 e8 ce e5 3c 33 55 9f bd 63 72 a3 bd 1b 4b 1f bd
       0.028052762 -0.07779922 -0.07980802 -0.038889986
0003d0 f4 0d 48 bd 87 04 b6 3c 83 2e 02 3d 58 b7 47 3d
       -0.04884143 0.022218956 0.03178264 0.048758835
0003e0 16 4a a7 bc 92 a6 cf bd a0 bc 4e bd 10 26 2b bd
       -0.02042107 -0.10139193 -0.050472856 -0.041784346
0003f0 db ad ab bd 9d 3d 10 3e c6 78 16 3c 7e 29 86 3d
       -0.0838277 0.14086004 0.009184068 0.06550883

lin2.bias f4 [84]
000000 1b 66 7a bc 0b df e9 3c ad e8 1c 3d 1a 9a 1b bd
       -0.015283133 0.028548738 0.038307834 -0.03798876
000010 51 73 f6 bd 45 a5 c3 3e 6d bc 3c 3e 57 72 d3 3e
       -0.120337136 0.38212028 0.18431254 0.41298172
000020 1c d1 29 3e 9c 53 76 3e 1c c6 86 3e 48 54 7d bd
       0.16583675 0.24055332 0.2632302 -0.061847955
000030 2e 17 a4 bd d7 31 dd 3d 13 3b a5 3e 75 83 11 3e
       -0.08012234 0.10800522 0.32271633 0.14210303
000040 ff 1f 9f 3d a4 a5 71 3c 37 8f f5 bc 2a 35 10 3e
       0.07769775 0.014748964 -0.029975517 0.1408278
000050 d7 c5 ca bb 2c 8d 9b bd 52 64 6f 3e 8b e7 e7 3e
       -0.006188135 -0.07595286 0.23378113 0.4529384
000060 61 f8 66 3d 94 99 44 3e dd 3e b7 3e dd 94 32 3e
       0.056389216 0.1919921 0.35790148 0.174396
000070 2c c4 f7 3d 6a 85 de 3e 7b 65 3a 3e 83 1d ce bc
       0.12097964 0.43461162 0.18202774 -0.025160557
000080 1e 3c e9 bd 35 fe 35 3e ae 02 25 3e 32 57 02 3d
       -0.113884196 0.17772754 0.16114303 0.031821437
000090 1b d1 d5 3e 3b c2 44 bc 6e 52 7f 3e c7 4d d2 bd
       0.41761097 -0.012009199 0.24933788 -0.10268741
0000a0 bc 36 0f 3d ff d1 27 3f f8 a5 23 3e 57 ca 76 bd
       0.03496431 0.65554804 0.15981281 -0.06025156
0000b0 03 4f 0e 3f bc 9f e8 3e bb cb f8 3d f1 c3 8b 3c
       0.5558931 0.45434368 0.121482335 0.017061206
0000c0 32 df f2 3e ee d6 58 3d e4 e7 2b 3c 4a a7 61 3e
       0.4743591 0.052939348 0.010492299 0.22036472
0000d0 49 e9 6d 3e da 67 bf bd aa 5d 02 be db 5d d3 bd
       0.23233522 -0.0934598 -0.12731043 -0.10320636
0000e0 2c 91 5b bd 87 a3 cb 3e b4 e3 c4 bc f5 8c 63 3e
       -0.053605244 0.397732 -0.024034359 0.2222174
0000f0 6b a7 9d bd 1f 36 90 3e f3 77 71 3e 0c c4 83 3e
       -0.07697948 0.2816629 0.23580913 0.2573551
000100 60 0b 14 3e ad 8d c4 3c f4 b5 d2 3e 39 c6 cd bd
       0.14457464 0.023993338 0.41154444 -0.100475736
000110 34 f5 c1 3d e7 46 b6 3d 62 0c ca bd 19 2f 8e 3d
       0.09470597 0.08900242 -0.09865643 0.06942577
000120 81 f1 51 bd 37 4c c4 3e 82 a6 be 3e 02 be d3 3e
       -0.051255707 0.38339397 0.3723641 0.41355902
000130 f2 d5 e4 3d c8 cc 2b be 46 1f ba 3e d1 20 0e 3e
       0.11173619 -0.16777337 0.36351985 0.13879706
000140 4e 96 cb 3e bb d0 13 3f 70 82 9b 3d 49 b7 79 3e
       0.3976311 0.5774037 0.07593238 0.24386324

lin3.weight f4 [10, 84]
000000 2f 1a b0 3d f4 9c 1f bd af c8 7d 3d 46 c5 45 bd
       0.08598744 -0.03896804 0.061958965 -0.048283838
000010 96 2f 08 bd c9 89 1a be 37 36 9c 3c 6e 84 53 be
       -0.033248506 -0.15091623 0.01906882 -0.20655987
000020 17 84 1a 3c a0 14 da bc c4 55 86 bc 7f 69 2c bd
       0.009430907 -0.026621163 -0.016398318 -0.042092796
000030 8f b3 67 3e 5f 62 27 3d b9 f0 3f be 8e fb 01 3f
       0.2262709 0.0408653 -0.18744172 0.50774467
000040 40 56 76 3d d3 f3 c9 3d c6 fb 0e bb 33 e3 82 3d
       0.06014085 0.09860959 -0.002181755 0.06390991
000050 a1 b8 d8 bd b8 c1 3a 3d 97 19 f9 bd d0 1f 25 be
       -0.1058209 0.0455949 -0.12163084 -0.16125417
000060 3a 6a 21 3e 66 44 5e be 51 2c 10 3e f9 45 50 3e
       0.15763178 -0.2170578 0.14079405 0.20339192
000070 03 d5 8c be 9c cb 29 3f 59 4d 59 bd 34 a9 45 3d
       -0.27506265 0.6632631 -0.05305228 0.048257068
000080 46 f1 d0 3d eb e4 f5 bc 6f 0c 02 be a0 c1 ce 3e
       0.10202269 -0.030016383 -0.12700056 0.403821
000090 7f c2 ed 3d 81 f6 20 3d 5e fc 0c 3f 0b fe e0 3d
       0.11609363 0.039297584 0.5507258 0.10985955
0000a0 33 15 ac 3e 58 ef 40 be 37 f9 93 3e a7 96 92 3e
       0.33609924 -0.18841302 0.28901073 0.28630564
0000b0 d7 41 f0 bd 8a 29 27 bc 5d 1e 14 3d 12 0d 99 3d
       -0.11731308 -0.010202775 0.03616177 0.07473196
0000c0 7e 61 1d bd 30 bd 8a bd e2 26 d2 bd 24 b5 db 3c
       -0.038423054 -0.06774366 -0.102613226 0.026819773
0000d0 9e f1 e9 3c fe 85 e3 3c eb cd 46 3e 5b b2 08 be
       0.028557595 0.027773853 0.19414489 -0.13349287
0000e0 e7 58 57 3d a5 5d 7a be 50 66 7c 3c c7 13 35 3e
       0.05257502 -0.24449785 0.015405253 0.17683326
0000f0 1e cb fb bb ed 2f 07 be bb ab 08 3d 9c 36 59 be
       -0.0076841256 -0.13201876 0.0333669 -0.21212238
000100 59 f9 e9 3e ee 49 a8 bd 4b 88 dd 3e f2 61 20 3e
       0.4569805 -0.08217226 0.43268046 0.15662363
000110 36 60 e9 bd 51 37 38 3d 3f 0b 3a 3d 68 9b 69 bc
       -0.11395304 0.04497463 0.04542088 -0.014258243
000120 e7 e1 0b 3e 50 01 f1 be bd 97 a2 bd 11 5c d3 bd
       0.13660394 -0.47071314 -0.07939098 -0.10320295
000130 7a c6 58 bd 98 05 a8 3d 0d 26 e5 3d 0c ad 6c 3c
       -0.052923657 0.08204192 0.11188898 0.014445554
000140 74 91 17 be 31 5d 6b 3e a6 ce 77 be 2b 5e a6 bd
       -0.1480158 0.22984768 -0.24199924 -0.0812343
000150 53 a8 74 3c 45 10 8c 3c 4b 30 9a bd 77 33 d0 3e
       0.01493271 0.017097602 -0.075287424 0.40664265
000160 58 f7 89 bc b0 57 20 3f ae 32 1e be 16 15 48 3e
       -0.016841576 0.626338 -0.1544902 0.19539294
000170 6e f9 9a 3e 7c f2 5f be b4 cb 22 be 2d 19 e7 3b
       0.30268425 -0.21869844 -0.15898019 0.0070525617
000180 0a 3c c5 bd ff 76 4a be 2f 85 d2 bd e1 0b d6 bd
       -0.09630592 -0.19771956 -0.10279309 -0.104514845
000190 b6 3b 78 3e 89 e8 b3 3b 0e 2f 05 3c e6 c5 10 3f
       0.24241528 0.005490367 0.0081288945 0.5655197
0001a0 6b 8e ae 3d 80 24 13 be 58 58 ad bc a1 8b f2 3e
       0.08523258 -0.14369392 -0.02116029 0.47372153
0001b0 b2 22 d1 bd 2f ff 12 bb ac eb bd bd b4 17 52 3e
       -0.10211696 -0.0022429933 -0.092734665 0.20516855
0001c0 08 64 28 be 31 48 2b 3e 25 fa 31 3d eb d3 04 3d
       -0.16444409 0.16726758 0.043451447 0.032428663
0001d0 bd 1b 27 bd fb f5 8c 3e ab 08 e5 3e 8f 0a e7 3c
       -0.040797938 0.27531418 0.44733176 0.028203277
0001e0 fa 7c 3e be 5f 80 e5 3d c7 ae 71 be 72 cc ef bd
       -0.18602362 0.112061255 -0.23601829 -0.11708917
0001f0 84 a0 4d be af 16 f1 bd 85 79 8a bc 5e 47 73 bd
       -0.20080763 -0.11771905 -0.016903648 -0.059394233
000200 a9 5d 02 bd ab c7 85 3e 57 12 a7 be 93 ca d0 3d
       -0.031827603 0.26128897 -0.3263118 0.10194888
000210 91 f9 f8 bd b1 5a 03 3f 9c d8 cb 3d c1 4f d9 3e
       -0.12156976 0.5131026 0.09953424 0.4244366
000220 2e 2c ff 3e 9a 30 91 3d dd 2d 92 3b c2 dc 5e 3c
       0.49838394 0.07089348 0.0044610337 0.013602437
000230 1b 98 30 3e d8 5b 0a 3e e2 d0 9c bd 27 45 05 bd
       0.17245524 0.13511598 -0.07657029 -0.032536652
000240 9c e3 1d 3d 6d 44 0c 3e 9f 7d e0 3c 06 f4 1e be
       0.038547143 0.13697977 0.02740365 -0.15522775
000250 2b fa ac bd bc 3e dc 3c 49 53 6d be c1 37 e4 bc
       -0.08446153 0.026885383 -0.23176302 -0.027858617
000260 9d 69 c1 bd e7 94 b2 3b e0 65 08 bd 0a 7a 71 bd
       -0.09443972 0.0054498794 -0.03330028 -0.058954276
000270 27 0d 79 3d c5 d4 68 3e 0c 9e a5 3e 03 02 34 be
       0.06080356 0.22737415 0.32347143 -0.17578892
000280 0e c7 01 3e c2 b6 1f 3d a1 ab 49 3e 28 b2 e5 3e
       0.1267359 0.03899265 0.19694377 0.44862485
000290 c3 a1 1e be 84 dc 1e be af ad 40 be b1 b2 9b bd
       -0.15491395 -0.15513808 -0.18816255 -0.07602442
0002a0 ed 89 04 3e b8 09 9b bd 4a 18 08 3e 94 62 06 3e
       0.1294324 -0.07570213 0.13290516 0.13123542
0002b0 44 ea 84 3d 17 7d 2f 3e 7f 3c 7a 3e 3d 5d 9c 3d
       0.06489995 0.17137562 0.2443714 0.07634971
0002c0 67 58 b2 3d 63 71 f6 bd 0d 1f d3 3e 6b 1a e9 3c
       0.08708268 -0.120333456 0.41234627 0.02845498
0002d0 66 6d ba 3e c5 4b e3 bd 26 ad 1d be cf 73 b2 bd
       0.3641159 -0.11098436 -0.15398082 -0.08713495
0002e0 c5 db 98 bd 10 29 16 3f d3 62 d3 3e 58 14 04 bd
       -0.07463793 0.58656406 0.41286334 -0.032245964
0002f0 b8 ea 95 bd f6 5f 17 3d 75 d6 91 be 36 64 21 bd
       -0.0732016 0.03695675 -0.2848393 -0.03940221
000300 b7 da 2e be b8 56 af bb d7 42 95 be 53 4a 98 3d
       -0.1707562 -0.005350914 -0.29152557 0.07436051
000310 c1 16 bc bd 76 29 47 3d f9 2c 7e bd 03 01 ad 3d
       -0.091840275 0.048623525 -0.062054608 0.084474586
000320 e4 ec 67 3d 3b 02 12 3f 70 c6 2f 3e c3 29 25 3e
       0.0566224 0.57034653 0.17165542 0.16129212
000330 5a f1 74 bd b0 80 6a bd b9 b6 af 3c 65 bc 80 bd
       -0.059800483 -0.057251632 0.021449434 -0.062859334
000340 03 2a 77 be c9 c1 72 be d3 03 cb 3e f0 c5 a4 be
       -0.2413712 -0.23706736 0.39651355 -0.32182264
000350 47 19 33 3e dc bb e8 3e f6 d7 35 3e b7 a4 a3 3b
       0.17490111 0.45455825 0.17758164 0.004994001
000360 ec f3 ea 3e c2 22 5f 3e 58 04 54 3e 93 80 60 be
       0.45889223 0.21790603 0.20704782 -0.21924047
000370 51 15 b8 be cb e3 c6 3e ff 06 66 3d 9f 72 05 be
       -0.35953763 0.38845667 0.056159016 -0.13032006
000380 c3 dc 65 bc 8e cd ae 3e 59 3c 0d be 8e aa 73 3e
       -0.0140296845 0.341412 -0.13792552 0.2379553
000390 11 3b 95 bd d4 92 46 3d 91 9f 39 bd 82 ac bb 3c
       -0.07286657 0.04847987 -0.04531819 0.022909407
0003a0 9a 25 e0 bd 0c 7f db bd e6 6f 1d 3e dc 1b 0e 3d
       -0.10944672 -0.10717592 0.15374717 0.034694538
0003b0 31 c6 36 bb 6f ca e2 3d cf 90 44 3d f5 fb 4d be
       -0.0027889127 0.110737674 0.047989663 -0.20115645
0003c0 bb 92 c4 bd 2b dd 4d 3f 41 00 4d be 16 b2 0b bd
       -0.09598299 0.804156 -0.20019628 -0.034105383
0003d0 e5 5c 1f 3e 53 ab e0 bd d4 7a d0 3b e8 b8 90 3e
       0.1556278 -0.109701775 0.0063622985 0.28266072
0003e0 66 e4 de 3e 16 4a 04 be a4 fa bc 3d 0a 8d 75 bc
       0.4353363 -0.12918887 0.092274934 -0.01498724
0003f0 89 69 54 3e 03 3c d8 bb 15 8c 65 be d3 a4 2d be
       0.20743383 -0.006598951 -0.22416718 -0.16957407

lin3.bias f4 [10]
000000 2a 2b d0 3e bf 5a fc 3c cc e6 e5 3e 65 0f ef 3e
       0.40657932 0.03080499 0.44902647 0.46691433
000010 33 5e 2d 3f 4e cb 45 3e 1e 9c 2d 3e 46 d9 58 3e
       0.6772186 0.19315836 0.16954085 0.21176633
000020 d6 e5 64 3f a2 ee 5b 3f
       0.894132 0.85911

momentum_buffer f4 [6, 1, 3, 3]
000000 35 a4 01 29 1a 83 ef b2 60 09 ef b1 8e c3 07 28
       2.878618e-14 -2.788288e-08 -6.9568813e-09 7.53641e-15
000010 fa ff ef b2 aa 09 ef b1 ee 84 84 20 5c 56 5c b2
       -2.7939667e-08 -6.956914e-09 2.2449635e-19 -1.2825321e-08
000020 60 56 5c b1 67 d6 91 3c c6 ec d4 bb 81 5a 2b bd
       -3.2063312e-09 0.01780243 -0.006497952 -0.041834358
000030 c0 71 d0 3c 31 19 b6 bb 83 43 02 bd 60 97 ee bb
       0.025444865 -0.0055572023 -0.031802665 -0.007281229
000040 0f c1 07 bd 69 11 40 bd aa a6 55 3c 5d f4 d2 3c
       -0.0331431 -0.046891604 0.013040224 0.025751287
000050 94 b4 ce 3c 96 9e dd 3a 08 25 22 3a ec bd 29 3c
       0.02523259 0.0016908224 0.00061853277 0.010360222
000060 84 77 fc 39 17 08 37 3b 7c c8 28 3c 04 00 00 80
       0.00048154232 0.0027928406 0.010301705 -6e-45
000070 04 00 00 00 04 00 00 80 04 00 00 80 04 00 00 80
       6e-45 -6e-45 -6e-45 -6e-45
000080 04 00 00 00 04 00 00 80 04 00 00 80 04 00 00 80
       6e-45 -6e-45 -6e-45 -6e-45
000090 71 41 27 3d 9e 0a 5c 3d 0c d6 2f 3d 67 3d 67 3c
       0.040833894 0.053721063 0.04292874 0.014113761
0000a0 fc 4c 04 3c cb 56 34 3c b9 99 03 39 54 c0 30 3a
       0.008074995 0.011007021 0.000125504 0.00067425263
0000b0 f8 7d 2c 3c 59 4c 41 16 00 aa be 1b 33 fe bb 36
       0.01052808 1.5614507e-25 3.1542723e-22 5.602627e-06
0000c0 e9 d6 73 ae ba d2 0f 38 d2 2f d0 38 c9 14 0f 38
       -5.544268e-11 3.429011e-05 9.92712e-05 3.4113214e-05
0000d0 72 0d 0f 39 e6 b7 12 39
       0.00013642551 0.00013992153

momentum_buffer f4 [6]
000000 51 d5 ff b2 62 58 cc 3b 40 0f d0 3c 04 00 00 00
       -2.9782912e-08 0.006236122 0.025397897 6e-45
000010 94 6e 73 3d 15 ea 13 39
       0.059431627 0.00014106215

momentum_buffer f4 [16, 6, 5, 5]
000000 d1 b3 05 80 05 f1 79 a5 47 3c 71 a5 04 00 00 00
       -5.23683e-40 -2.1678968e-16 -2.092384e-16 6e-45
000010 04 00 00 80 ea 46 cf 9f a7 e4 22 05 81 d2 07 89
       -6e-45 -8.778523e-20 7.6592e-36 -1.6349012e-33
000020 04 00 00 00 30 45 60 88 25 32 95 29 2a 42 c0 16
       6e-45 -6.7488878e-34 6.625628e-14 3.1061028e-25
000030 4c b5 e4 9f 10 63 8e 2f 27 f1 cc 16 04 00 00 80
       -9.6861687e-20 2.5900038e-10 3.3110166e-25 -6e-45
000040 75 bd c1 09 af af 05 85 12 d8 61 08 11 01 00 00
       4.6641224e-33 -6.285898e-36 6.7962464e-34 3.83e-43
000050 04 00 00 00 aa 9a 21 1f 80 7f 89 09 23 71 e7 92
       6e-45 3.422101e-20 3.310145e-33 -1.460604e-27
000060 b0 2e 89 92 57 74 04 3b d1 c8 b9 3a 1c ce 21 ba
       -8.657425e-28 0.0020210946 0.0014174228 -0.0006172375
000070 cb 99 1f bb 9a be 07 bb e5 48 81 3b 3c ee f8 3a
       -0.0024353142 -0.0020712973 0.0039454573 0.0018991898
000080 0d 70 81 b8 dc 40 b8 ba 70 e1 47 3a e0 80 41 3b
       -6.1720704e-05 -0.0014057416 0.00076248404 0.0029526278
000090 9c eb 08 3c 59 6f 36 ba 55 01 4b 3c 69 4a 5b 3c
       0.008356955 -0.0006959341 0.012390454 0.01338444
0000a0 fe 41 35 3a a8 62 1b 3b 42 95 8c bb d4 ef 3d 3c
       0.00069144357 0.0023709927 -0.004290254 0.011592824
0000b0 78 91 f4 3b dc 17 24 38 5e ec c5 b1 fc a2 21 39
       0.0074636303 3.9122868e-05 -5.7603264e-09 0.00015414873
0000c0 f1 44 3c 3c 08 98 9a 3b 38 2d 39 3a 48 7e 4e 3a
       0.011491046 0.0047178306 0.0007063928 0.0007877094
0000d0 17 9c 39 3a e3 00 50 3a 91 45 db 38 4c 75 e9 38
       0.0007080449 0.00079347024 0.000104556915 0.00011132154
0000e0 70 52 b0 39 d9 80 92 3a 29 67 3f 3b 71 a2 fb 3a
       0.00033630757 0.0011177316 0.0029205775 0.0019198192
0000f0 22 5f 4e 3b 66 01 9f 3b ad 7b 10 3c f4 50 0c 3c
       0.003148981 0.0048524616 0.008818549 0.008564223
000100 cb e1 ed 3b 41 81 de 3a 6b 18 cb 3b 9d 30 98 3b
       0.0072595826 0.0016975777 0.006197979 0.004644467
000110 e6 5b 75 3b a2 13 ee 3b f3 17 8e 3a 9d 43 41 39
       0.003743881 0.007265524 0.0010840878 0.00018431102
000120 84 8c 1e ba bb 9e bc b9 78 42 5b 3b 04 00 00 80
       -0.000604816 -0.00035976418 0.0033456367 -6e-45
000130 04 00 00 80 04 00 00 80 04 00 00 00 04 00 00 00
       -6e-45 -6e-45 6e-45 6e-45
000140 04 00 00 00 04 00 00 00 04 00 00 80 04 00 00 80
       6e-45 6e-45 -6e-45 -6e-45
000150 04 00 00 00 04 00 00 00 04 00 00 80 04 00 00 80
       6e-45 6e-45 -6e-45 -6e-45
000160 04 00 00 80 04 00 00 00 04 00 00 80 04 00 00 80
       -6e-45 6e-45 -6e-45 -6e-45
000170 04 00 00 80 04 00 00 80 04 00 00 80 04 00 00 80
       -6e-45 -6e-45 -6e-45 -6e-45
000180 04 00 00 80 04 00 00 00 04 00 00 80 04 00 00 80
       -6e-45 6e-45 -6e-45 -6e-45
000190 92 6c 22 3a 53 7b 03 ba a0 51 b3 b3 78 e6 7e b6
       0.0006195988 -0.000501563 -8.3501845e-08 -3.79831e-06
0001a0 6b d2 b3 b8 ec 43 4e 39 de 26 71 ba 25 b1 cb 3a
       -8.5745785e-05 0.00019670994 -0.0009199212 0.0015540464
0001b0 f7 81 b5 3a 2e ce bb 3a 80 3e ae 3a ba 24 c8 3b
       0.0013847937 0.0014328414 0.0013293773 0.006107894
0001c0 c8 e6 ca 3b a7 5d 20 3c eb 81 05 3c d8 a2 73 ba
       0.006192062 0.009787953 0.008148651 -0.000929398
0001d0 d6 4f b3 3b c3 ac cb b9 3f 44 05 3c 44 d3 55 3b
       0.0054721637 -0.00038847895 0.008133947 0.0032627145
0001e0 46 c1 03 32 e0 02 12 ba 02 32 6a ba 38 6d 06 39
       7.669149e-09 -0.00055698864 -0.00089338433 0.00012819923
0001f0 11 c2 5f ba de a1 10 2f 50 f9 98 af 83 5d 6f 30
       -0.0008535693 1.315423e-10 -2.7825786e-10 8.708058e-10
000200 99 e4 d6 a7 1d 68 60 2f 2c c4 ce ab 9e f6 1d b3
       -5.964478e-15 2.040967e-10 -1.4691629e-12 -3.6778708e-08
000210 df 85 26 b4 d8 12 c1 2e 61 eb c5 b2 b4 8b 57 a1
       -1.5508657e-07 8.779971e-11 -2.3040856e-08 -7.302973e-19
000220 c3 24 f9 2d ea c7 e1 ad ed c0 b7 2b 3f d1 bf aa
       2.8324348e-11 -2.5668318e-11 1.305648e-12 -3.407361e-13
000230 04 00 00 00 04 00 00 80 04 00 00 80 b5 7b 41 1e
       6e-45 -6e-45 -6e-45 1.0242917e-20
000240 01 99 08 a9 45 af 02 a0 6c ac 24 27 f1 94 0d af
       -3.0330776e-14 -1.106942e-19 2.2853042e-15 -1.287679e-10
000250 2f b3 dd 2f 5e d4 1c b2 04 00 00 00 04 00 00 80
       4.0326983e-10 -9.128682e-09 6e-45 -6e-45
000260 93 18 53 88 04 00 00 00 04 00 00 80 04 00 00 80
       -6.352439e-34 6e-45 -6e-45 -6e-45
000270 ae eb ae 2e 0f bf 96 2f 04 00 00 00 04 00 00 00
       7.954469e-11 2.7420596e-10 6e-45 6e-45
000280 cb 3a 47 95 5d f2 16 8e 04 00 00 00 04 00 00 80
       -4.023411e-26 -1.8605621e-30 6e-45 -6e-45
000290 08 00 00 80 04 00 00 00 04 00 00 80 04 00 00 00
       -1.1e-44 6e-45 -6e-45 6e-45
0002a0 fc 5a fe 95 93 89 8f 1f 04 00 00 80 04 00 00 00
       -1.0273333e-25 6.079045e-20 -6e-45 6e-45
0002b0 af 92 c9 95 74 31 62 23 79 27 d7 ae c4 a8 81 3a
       -8.141468e-26 1.2261957e-17 -9.78408e-11 0.0009892215
0002c0 e2 b9 34 3a 9a 52 90 bb 21 bc 4c bb 4f e7 26 bc
       0.0006894154 -0.004404378 -0.0031240063 -0.010186984
0002d0 5c 51 19 3a f6 8a 11 bc 23 f3 cc bb 7c a0 20 bc
       0.00058486103 -0.0088832285 -0.00625457 -0.009803887
0002e0 d0 28 d1 bc ad e4 45 39 12 31 cf bb 83 81 d5 ba
       -0.025532156 0.00018872572 -0.0063229883 -0.0016289208
0002f0 24 11 83 bc dc 66 d4 bc bc 31 f1 38 c5 c0 29 b9
       -0.015999384 -0.025927953 0.00011501039 -0.00016188908
000300 40 f2 5f ba 53 29 ac bc c4 44 b8 bc 56 a8 15 b9
       -0.0008542873 -0.021015799 -0.022493728 -0.00014272457
000310 da 59 3e b9 78 41 01 bc c0 de b0 bc 8f b4 17 bc
       -0.00018153284 -0.007889144 -0.02159059 -0.009259357
000320 1b ec 4d b9 cb f9 36 b9 2b e7 37 bb 96 df b3 bb
       -0.0001963828 -0.00017449928 -0.002806137 -0.0054893
000330 01 23 d4 ba 62 47 2c 3a b2 94 a7 3a dc 63 aa bb
       -0.0016184748 0.0006571916 0.0012785404 -0.0051998924
000340 4c 85 c5 bb af 74 ba 3a c8 3d 32 ba 83 41 f7 bb
       -0.006027853 0.0014225448 -0.0006799367 -0.0075456514
000350 90 a8 1d bc 8e cf 49 bb d7 92 27 bb 91 0a d9 39
       -0.009622708 -0.0030793878 -0.00255697 0.00041397338
000360 7a b4 40 38 09 fb 91 b9 40 4e 6d ba 45 e6 d2 bb
       4.594445e-05 -0.0002784359 -0.00090524927 -0.0064361417
000370 fe 9c 98 39 77 73 ea b3 23 d7 ab 38 61 76 4e 39
       0.00029108668 -1.0917477e-07 8.193988e-05 0.0001968979
000380 98 26 bf bb 04 00 00 80 04 00 00 80 04 00 00 80
       -0.005833458 -6e-45 -6e-45 -6e-45
000390 04 00 00 80 04 00 00 80 04 00 00 80 04 00 00 80
       -6e-45 -6e-45 -6e-45 -6e-45
0003a0 04 00 00 80 04 00 00 80 04 00 00 80 04 00 00 80
       -6e-45 -6e-45 -6e-45 -6e-45
0003b0 04 00 00 80 04 00 00 80 04 00 00 80 04 00 00 80
       -6e-45 -6e-45 -6e-45 -6e-45
0003c0 04 00 00 80 04 00 00 80 04 00 00 80 04 00 00 80
       -6e-45 -6e-45 -6e-45 -6e-45
0003d0 04 00 00 80 04 00 00 80 04 00 00 80 04 00 00 80
       -6e-45 -6e-45 -6e-45 -6e-45
0003e0 04 00 00 80 04 00 00 80 98 27 7c 3a c7 be ae ba
       -6e-45 -6e-45 0.0009618937 -0.0013332003
0003f0 e7 32 ca bb 67 5a ba bb b4 ad 95 ba ad 1f df 3a
       -0.006170619 -0.0056870463 -0.0011419565 0.001702299

momentum_buffer f4 [16]
000000 c8 84 f7 3b 91 c7 db bb 03 3b ef 3a ae ac 3f 3c
       0.0075536706 -0.00670714 0.001825184 0.011698885
000010 85 b3 50 3c b1 96 de bc 4b b5 e8 39 98 c3 3e 3c
       0.012738113 -0.027171465 0.00044385562 0.011643313
000020 21 94 99 ae 3e 9f 89 ba 14 62 a4 ba 1b 38 62 bb
       -6.9839474e-11 -0.0010499728 -0.0012541437 -0.0034518305
000030 d6 0f c8 bb fd fc 76 bb ec 9e 89 bb 39 66 67 3b
       -0.0061054034 -0.0037687414 -0.004199853 0.0035308732
