results/checkpoint.pth (torch_old, 496168 bytes, 20 tensors)

conv1.weight f4 [6, 1, 3, 3]
0.25178546 1.400394 0.5458579 1.2181641 -0.0792193 -0.59812945 0.32141653 -0.5635119
-0.6750054 0.9040926 1.01312 -0.68071306 0.038145095 1.314297 0.109768815 -0.5281095
0.88581413 1.2542217 0.53151166 1.1558574 1.5519102 0.2982518 -0.5256713 0.0235567
-1.953518 -1.2948368 -0.86745894 -0.7212101 -0.32147732 -0.62071776 0.21671343 0.8885652
0.6677641 -0.26436856 0.07719574 -0.5976579 1.1617332 -0.20925628 -0.5659737 1.4627172
-1.0941212 -0.69057775 0.871476 -0.5451165 0.09878359 0.29036772 0.62137014 -0.6753752
0.9988045 -0.20967947 -0.46103582 -0.407939 -0.6816626 -0.5490861
00000000: 06ea 803e 1c40 b33f 58bd 0b3f cdec 9b3f
00000010: ba3d a2bd 031f 19bf b590 a43e 5142 10bf
00000020: 27cd 2cbf 9d72 673f ebad 813f 3643 2ebf
00000030: 083e 1c3d e23a a83f 79ce e03d 2f32 07bf
00000040: b7c4 623f 568a a03f 2611 083f 23f3 933f
00000050: fea4 c63f 76b4 983e 6592 06bf fbf9 c03c
00000060: e10c fabf 36bd a5bf ca11 5ebf 3aa1 38bf
00000070: ad98 a4be 5ce7 1ebf 20ea 5d3e 0279 633f
00000080: 97f2 2a3f 515b 87be cd18 9e3d 1c00 19bf
00000090: acb3 943f 4747 56be a7e3 10bf 513a bb3f
000000a0: 2a0c 8cbf b4c9 30bf 0d19 5f3f c18c 0bbf
000000b0: 0d4f ca3d 14ab 943e 1d12 1f3f 64e5 2cbf
000000c0: a7b1 7f3f 37b6 56be e30c ecbe 61dd d0be
000000d0: 7181 2ebf e890 0cbf

conv1.bias f4 [6]
-1.0976256 -2.3697758 -0.20651427 -0.50528145 -0.79086286 -0.012415244
00000000: ff7e 8cbf 68aa 17c0 7a78 53be 205a 01bf
00000010: fd75 4abf 4f69 4bbc

conv2.weight f4 [16, 6, 5, 5]
0.31176323 0.19793189 0.07760027 -0.08913487 0.41477686 0.22690897 -0.24685924 -0.5622001
-0.32425088 0.21894436 -0.5655627 -0.5765658 -0.71380144 -0.54535395 -0.4161856 0.3587799
0.06513256 -0.1867154 -0.38679934 -0.47274974 0.14661966 0.035180993 0.015965689 0.4080326
0.41626543 0.07585858 0.16475406 0.011158786 -0.004406975 0.113661155 -0.2213888 -0.35232463
-0.65722734 -0.32375365 -0.031554118 -0.33518237 -0.12488257 -0.46011522 -0.7749485 -0.8667053
0.15753374 0.7999441 0.29416004 -0.1586036 -0.052020524 0.50463325 0.43786225 0.33941638
0.5269607 0.5382873 -0.07608733 0.11867575 -0.06956642 -0.24683829 0.23140353 0.08800597
0.09071741 -0.19995837 -0.045450915 0.19218619 -0.36964175 -0.22175346 -0.35025135 -0.25072888
0.1569611 0.44521353 0.743483 0.11587381 -0.1692739 -0.19106233 -0.7834156 -0.40187547
-0.16340744 -0.08481212 0.604433 0.21210648 0.036515288 -0.2126521 0.2734583 0.13883258
-0.13828988 -0.38647303 -0.3743448 -0.2622597 -0.19051157 0.0602482 -0.14563014 -0.46430385
-0.38779488 -0.76544535 0.080673315 0.13794707 0.2147476 0.01181793 0.089476295 -0.13031472
-0.019231444 0.24642076 0.25322133 0.38316244 0.15201487 0.01569299 0.31627297 0.05065052
0.1648011 0.0941456 -0.41406724 -0.657708 -0.36543733 0.010587168 -0.21901347 -0.41024303
-0.19479014 -0.68475235 -0.15085356 -0.024546642 -0.063481666 -0.093259685 -0.2977645 0.12879997
0.18544035 0.17037587 0.119555965 0.20560353 0.03246433 0.09975614 0.16676423 0.10573628
0.09508291 0.28273964 0.0072515095 -0.1368899 -0.07536337 -0.17481966 0.039278693 -0.29368997
-0.1281825 -0.13115014 -0.17042118 -0.075692065 -0.014824787 -0.1453527 -0.121625505 -0.23166984
0.014465434 -0.11156393 -0.09417367 -0.13449124 -0.06891168 -0.0047540953 0.072551765 0.04926983
0.1031089 0.14095001 0.40714774 0.009359069 0.06974614 -0.12919345 0.12712897 0.49773914
-0.13631065 -0.07660743 -0.23588915 -0.042108856 -0.2755782 -0.15327008 -0.17484997 -0.29648572
-0.16967309 -0.2587376 -0.08035507 -0.034647495 -0.06883527 -0.10530613 0.11080659 -0.037347123
-0.25185338 -0.10414013 -0.36907318 0.026023585 -0.21524191 -0.3937956 0.014699002 0.09536423
0.35764658 -0.15094979 -0.162047 -0.29391345 0.16161126 0.58927405 -0.13623631 -0.119089246
-0.3984576 -0.12899673 0.26242483 -0.045552135 0.11721338 0.033076104 -0.20501329 -0.28040865
0.021808984 0.32625467 0.006274717 -0.32455033 -0.12759396 -0.012945448 -0.08543241 -0.10235378
-0.39673936 -0.17547803 -0.024534678 -0.08186518 0.21331596 0.15901566 0.17060934 -0.10723689
-0.11149454 0.29329312 0.20436434 0.41414276 -0.16065262 -0.0624872 -0.22935809 -0.36483723
-0.053348716 -0.08487603 -0.086742155 -0.00027905742 0.12758568 0.35271809 -0.10440829 -0.071214974
-0.101213776 -0.05341722 0.024595302 -0.037910447 -0.08834026 -0.1775527 -0.13034473 0.14541379
-0.18178017 -0.19491616 -0.26617438 -0.18252543 0.02414949 -0.022187911 0.08153019 -0.0062292586
0.018991238 0.011311927 -0.09428032 0.11537086 -0.17260192 0.0029600095 -0.18482515 0.032999467
00000000: 6e9f 9f3e a8ae 4a3e e4ec 9e3d 588c b6bd
00000010: a25d d43e d35a 683e abc8 7cbe 59ec 0fbf
00000020: 3604 a6be f332 603e b8c8 10bf d199 13bf
00000030: b1bb 36bf 519c 0bbf 4716 d5be 00b2 b73e
00000040: 3864 853d 5232 3fbe 900a c6be 410c f2be
00000050: 7723 163e f219 103d 7aca 823c a6e9 d03e
00000060: be20 d53e be5b 9b3d 4ab5 283e 57d3 363c
00000070: 6368 90bb 2ec7 e83d bfb3 62be e563 b4be
00000080: 0d40 28bf 0ac3 a5be e43e 01bd 069d abbe
00000090: 6fc2 ffbd 3994 ebbe 0663 46bf 66e0 5dbf
000000a0: 8650 213e 23c9 4c3f 259c 963e fb68 22be
000000b0: 7913 55bd a52f 013f 7b2f e03e fcc7 ad3e
000000c0: e5e6 063f 32cd 093f add3 9bbd 460c f33d
000000d0: d778 8ebd 2dc3 7cbe 0cf5 6c3e 793c b43d
000000e0: 0dca b93d e3c1 4cbe bd2a 3abd 75cc 443e
000000f0: af41 bdbe 5713 63be 2554 b3be 895f 80be
00000100: 69ba 203e 07f3 e33e e754 3e3f 404f ed3d
00000110: 2356 2dbe d8a5 43be ed8d 48bf 9fc2 cdbe
00000120: 4854 27be fab1 adbd 1fbc 1a3f 7132 593e
00000130: 0e91 153d 79c1 59be ba02 8c3e 212a 0e3e
00000140: dd9b 0dbe cbdf c5be 1faa bfbe e746 86be
00000150: 7715 43be d1c6 763d 1120 15be 3cb9 edbe
00000160: 0d8d c6be 3af4 43bf 0d38 a53d ff41 0d3e
00000170: cbe6 5b3e fe9f 413c 593f b73d 3971 05be
00000180: 438b 9dbc b955 7c3e 3aa6 813e de2d c43e
00000190: c9a9 1b3e 968e 803c 88ee a13e eb76 4f3d
000001a0: 9fc1 283e 69cf c03d 9f00 d4be 8d5f 28bf
000001b0: 9a1a bbbe cd75 2d3c 1145 60be 600b d2be
000001c0: 1177 47be ee4b 2fbf 5b79 1abe 0a16 c9bc
000001d0: ad02 82bd effe bebd 9774 98be 24e4 033e
000001e0: 13e4 3d3e 0377 2e3e c2d9 f43d bb89 523e
000001f0: 51f9 043d f24c cc3d 3ec4 2a3e 438c d83d
00000200: d4ba c23d 40c3 903e 129e ed3b de2c 0cbe
00000210: 1c58 9abd ed03 33be b2e2 203d 885e 96be
00000220: 4642 03be 394c 06be e482 2ebe 7104 9bbd
00000230: aae3 72bc 57d7 14be cb16 f9bd dc3a 6dbe
00000240: 6d00 6d3c a17b e4bd 20de c0bd 12b8 09be
00000250: 9121 8dbd 3ec8 9bbb 0596 943d 29cf 493d
00000260: c22a d33d 3355 103e ab75 d03e c856 193c
00000270: 10d7 8e3d 4a4b 04be 192e 023e aad7 fe3e
00000280: 0595 0bbe 5be4 9cbd ed8c 71be 567a 2cbd
00000290: 9618 8dbe d5f2 1cbe df0b 33be facc 97be
000002a0: c8be 2dbe 4179 84be 3391 a4bd 88ea 0dbd
000002b0: 82f9 8cbd beaa d7bd 91ee e23d 4cf9 18bd
000002c0: edf2 80be 6c47 d5bd 29f7 bcbe 6a2f d53c
000002d0: 6068 5cbe 949f c9be 15d4 703c 524e c33d
000002e0: 741d b73e 9592 1abe a6ef 25be d37b 96be
000002f0: 6c7d 253e aada 163f 8881 0bbe 10e5 f3bd
00000300: a202 ccbe b817 04be 8c5c 863e e094 3abd
00000310: 920d f03d cf7a 073d 01ef 51be b991 8fbe
00000320: c1a8 b23c da0a a73e 249c cd3b 762b a6be
00000330: fea7 02be 2519 54bc 30f7 aebd dc9e d1bd
00000340: 6c21 cbbe 83b0 33be f3fc c8bc eea8 a7bd
00000350: 806f 5a3e 00d5 223e 37b4 2e3e 049f dbbd
00000360: 4057 e4bd 842a 963e e344 513e 850a d43e
00000370: 1f82 24be 94f2 7fbd d9dc 6abe f2cb babe
00000380: 2f84 5abd 7cd3 adbd dfa5 b1bd 744e 92b9
00000390: d2a5 023e 7797 b43e 03d4 d5bd 28d9 91bd
000003a0: 2b49 cfbd 04cc 5abd 167c c93c fc47 1bbd
000003b0: bdeb b4bd 60d0 35be 1779 05be 5ae7 143e
000003c0: 9524 3abe 1a98 47be 0248 88be f2e7 3abe
000003d0: 27d5 c53c 6cc3 b5bc 4df9 a63d cf1e ccbb
000003e0: 8393 9b3c a955 393c 0a16 c1bd 8f47 ec3d
000003f0: 8fbe 30be b8fc 413b ce42 3dbe 732a 073d

conv2.bias f4 [16]
-0.46415183 -0.27482635 -0.05743612 0.0027766458 -0.019601306 -0.7634141 -0.279759 -0.42481768
-1.0289171 -0.04961568 -0.31338662 -0.60299057 -0.97853535 -0.011410349 -0.30922636 -0.84960896
00000000: 4fa5 edbe 0ab6 8cbe 2342 6bbd 63f8 353b
00000010: eb92 a0bc 1b6f 43bf 923c 8fbe b481 d9be
00000020: 8eb3 83bf d039 4bbd 3674 a0be 975d 1abf
00000030: 4b81 7abf 79f2 3abc eb52 9ebe f97f 59bf

lin1.weight f4 [120, 400]
0.0323994 0.19307505 0.17382134 -0.01981063 0.016230987 0.056466866 0.058934756 -0.08254744
-0.1378381 -0.12629761 -0.019926405 0.07459046 -0.132601 -0.07687092 0.058014072 -0.042356744
-0.14048757 -0.17109393 -0.106104955 -0.090661205 -0.00012654175 -0.08619581 -0.06757172 -0.13158064
-0.064006224 0.07847247 0.13188747 -0.037200816 -0.046069477 0.044312347 -0.024349764 -0.16080238
-0.07312097 -0.04087822 0.0056041693 0.14015 -0.16198851 -0.11049804 0.0010415191 0.0034504754
-0.10764155 0.0154402815 -0.060058624 -0.0030015227 -0.032376602 -0.23903975 -0.046210557 0.09420408
0.016952971 0.014832071 -0.06970257 -0.06176781 -0.06721903 -0.051097855 0.007133427 -0.034048796
-0.10933174 -0.0033966538 0.064572714 0.24455939 -0.057941943 0.040492386 0.22586884 0.087413326
0.028298786 -0.089260995 0.081131496 0.04546311 0.23568417 -0.02047621 -0.011424047 0.12562709
0.22778915 -0.20065016 -0.16807413 -0.05729147 -0.096852936 0.07500136 0.082577504 0.013300562
-0.083644584 -0.0810358 0.04469399 0.13145189 -0.14888835 -0.08971325 -0.04845994 0.06883797
0.11360586 -0.08342028 0.054236 0.11811852 -0.2821072 -0.00704118 -0.09418958 -0.017735425
0.32065976 0.0262366 -0.008821904 -0.067595676 0.08368386 0.15085079 -0.008606501 -0.0066587026
-0.05869295 0.063887075 0.2709379 0.059427872 0.051805355 0.07413849 0.013066012 -0.07003311
-0.06020217 0.019114358 -0.024861038 0.038577814 -0.09056386 0.18875112 0.054721072 0.08233113
-0.139774 -0.23602137 -0.0006864571 0.0018999133 -0.06562052 0.01473197 0.07665482 -0.04196484
0.0049045132 0.00593755 0.12460895 -0.14885138 -0.215963 0.0148610165 0.004872731 -0.062545545
-0.16239 0.14002968 0.02608801 0.013737986 -0.14882669 -0.21661067 -0.15884449 -0.035054367
0.05546393 -0.31277764 0.08662431 0.22158515 -0.04432313 0.010324698 -0.06565313 -0.022964599
0.056373507 0.0232884 -0.06740923 0.010975069 -0.02775006 0.100415275 0.041347288 0.041075237
-0.12946427 0.107251115 -0.039915 -0.105482526 -0.09777529 -0.00011277974 0.12517963 0.0012346928
-0.047330867 -0.0623171 0.103690535 -0.18901877 -0.09248841 -0.05779475 -0.05934219 -0.19316702
-0.22512366 -0.04446609 -0.07470238 0.21745323 -0.26680738 -0.147653 -0.068130605 -0.06583527
0.22182113 -0.16396438 0.056002192 0.22998996 -0.08294801 -0.13284439 0.06151258 0.16282907
0.12607953 0.22810365 0.0737494 0.08940834 0.13192019 0.10616816 0.10884321 -0.29139525
-0.02201933 -0.031387903 0.21793585 0.032636367 0.043520857 0.088420734 0.027695911 0.081417635
0.36687937 -0.13258745 0.043529425 0.09500348 0.0083838515 -0.12479755 0.1721371 0.024824783
-0.074203335 0.061647575 -0.09307128 0.013405686 0.03927098 -0.057315502 -0.04030798 -0.105504476
-0.17006898 -0.014231793 0.0307 0.12691061 -0.14801565 0.012269205 -0.06854534 0.24825777
0.095589094 0.13992727 0.11109506 -0.009514704 0.26867262 -0.07785842 0.045992136 0.052909985
-0.055758838 -0.19822538 -0.16245446 -0.055928826 0.0060116393 -0.18428493 -0.15700184 -0.31715432
-0.23121424 -0.13125116 -0.0074278377 0.054591663 0.108856715 0.0042550922 0.011810679 -0.10885466
00000000: 3cb5 043d 77b5 453e 39fe 313e e749 a2bc
00000010: d9f6 843c cd49 673d 9265 713d a20e a9bd
00000020: 6e25 0dbe 2954 01be b33c a3bc e2c2 983d
00000030: 8ec8 07be 806e 9dbd 2aa0 6d3d 447e 2dbd
00000040: f9db 0fbe 3f33 2fbe 8e4d d9bd 95ac b9bd
00000050: 4bb0 04b9 6e87 b0bd 0b63 8abd 13bd 06be
00000060: b215 83bd 2db6 a03d 820d 073e e25f 18bd
00000070: 59b3 3cbd dd80 353d 2879 c7bc 61a9 24be
00000080: 72c0 95bd ec6f 27bd 2ea3 b73b 7b83 0f3e
00000090: 51e0 25be cc4c e2bd 9583 883a 5f21 623b
000000a0: 2c73 dcbd 3cf9 7c3c 0800 76bd 32b5 44bb
000000b0: 549d 04bd d6c6 74be 4847 3dbd 12ee c03d
000000c0: f5e0 8a3c 3702 733c 39c0 8ebd 3e00 7dbd
000000d0: 21aa 89bd fc4b 51bd 86bf e93b c076 0bbd
000000e0: 52e9 dfbd 659a 5ebb b33e 843d c76d 7a3e
000000f0: 8854 6dbd 58db 253d 294a 673e c205 b33d
00000100: dbd2 e73c 78ce b6bd 4528 a63d 8737 3a3d
00000110: 3157 713e babd a7bc ed2b 3bbc 63a4 003e
00000120: 8f41 693e 3c77 4dbe a01b 2cbe 76aa 6abd
00000130: d55a c6bd 509a 993d 651e a93d 9aea 593c
00000140: da4d abbd 19f6 a5bd 0c11 373d 539b 063e
00000150: 3076 18be 95bb b7bd ee7d 46bd ecfa 8c3d
00000160: 30aa e83d 40d8 aabd 9126 5e3d 1fe8 f13d
00000170: 5b70 90be b3b9 e6bb 77e6 c0bd e249 91bc
00000180: 842d a43e 23ee d63c bf89 10bc 9a6f 8abd
00000190: 7262 ab3d a178 1a3e 4802 0dbc 3f31 dabb
000001a0: 0568 70bd 3ad7 823d 5fb8 8a3e a46a 733d
000001b0: da31 543d ecd5 973d d412 563c 856d 8fbd
000001c0: 8d96 76bd b795 9c3c 60a9 cbbc c503 1e3d
000001d0: 8c79 b9bd f947 413e 3423 603d 399d a83d
000001e0: ea20 0fbe 96af 71be 5bf3 33ba 8306 f93a
000001f0: 0d64 86bd 5c5e 713c 34fd 9c3d 53e3 2bbd
00000200: 0ab6 a03b c88f c23b fa32 ff3d 7f6c 18be
00000210: 6825 5dbe 9f7b 733c 6eab 9f3b e117 80bd
00000220: 9049 26be f163 0f3e 86b6 d53c 4a15 613c
00000230: 0666 18be 30cf 5dbe 21a8 22be 2b95 0fbd
00000240: 252e 633d 6424 a0be 1668 b13d 38e7 623e
00000250: 2c8c 35bd ec28 293c 2675 86bd 4120 bcbc
00000260: e8e7 663d 51c7 be3c da0d 8abd c7d0 333c
00000270: 1854 e3bc 86a6 cd3d c65b 293d 823e 283d
00000280: 4892 04be 79a6 db3d e97d 23bd 3907 d8bd
00000290: 693e c8bd 2984 ecb8 172f 003e 6ad5 a13a
000002a0: 03de 41bd 3740 7fbd b45b d43d 238e 41be
000002b0: 906a bdbd 30ba 6cbd cc10 73bd 93cd 45be
000002c0: d186 66be 1322 36bd 90fd 98bd 0fac 5e3e
000002d0: fa9a 88be 5932 17be 0f88 8bbd a4d4 86bd
000002e0: 1425 633e 47e6 27be 8e62 653d 7d82 6b3e
000002f0: a5e0 a9bd 5c08 08be 9df4 7b3d aabc 263e
00000300: fe1a 013e 0194 693e ed09 973d b81b b73d
00000310: 1616 073e b16e d93d 30e9 de3d c231 95be
00000320: e261 b4bc 9a90 00bd 932a 5f3e b6ad 053d
00000330: ed42 323d ee15 b53d 89e2 e23c 4abe a63d
00000340: 9dd7 bb3e 01c5 07be e94b 323d 2f91 c23d
00000350: 6c5c 093c dc95 ffbd b544 303e 585d cb3c
00000360: ebf7 97bd 2b82 7c3d 289c bebd 86a3 5b3c
00000370: 9bda 203d a9c3 6abd fb19 25bd bb12 d8bd
00000380: 9026 2ebe 772c 69bc 917e fb3c dbf4 013e
00000390: 6a91 17be c704 493c 8061 8cbd 4937 7e3e
000003a0: 37c4 c33d 1849 0f3e cf85 e33d 90e3 1bbc
000003b0: 758f 893e 3c74 9fbd 4062 3c3d 24b8 583d
000003c0: 6163 64bd 98fb 4abe 765a 26be a015 65bd
000003d0: 49fd c43b 30b5 3cbe 17c5 20be 0d62 a2be
000003e0: 6dc3 6cbe b466 06be 3865 f3bb 829b 5f3d
000003f0: 45f0 de3d 4d6e 8b3b 9481 413c 31ef debd

lin1.bias f4 [120]
0.055032726 0.016542874 -0.095013425 -0.10229661 0.004635244 -0.01024836 -0.048960228 -0.019064594
0.29442576 0.16297017 -0.00691471 0.015881019 -0.052242972 0.06931329 -0.0701349 -0.19115762
0.035704337 -0.039897084 0.086851925 0.19015117 -0.029806076 -0.030337267 -0.045339134 -0.061954055
-0.0011914552 -0.119687706 -0.27433652 -0.019818487 -0.12292352 -0.13794993 -0.03232677 -0.022704652
-0.0011227651 -0.18857566 -0.040071834 0.002424848 0.10580106 -0.037558056 0.016330795 0.012714073
-0.21407197 -0.0730528 -0.21056646 -0.09584671 0.018126654 -0.047941018 -0.014255598 0.06879834
-0.073957734 0.045442756 -0.09667755 -0.01608197 -0.13052608 0.007453565 -0.10943497 0.013840751
0.1074566 -0.044560365 -0.080719024 0.011767076 -0.035449095 0.109853074 0.08522824 -0.030907644
0.057735108 -0.0673838 -0.034489684 -0.019426655 -0.026007636 0.03258018 -0.035166755 0.29012704
-0.031882375 -0.05474966 -0.093863435 -0.03397199 0.024462992 0.00471369 -0.16102307 -0.012515438
0.21772113 -0.0649607 -0.051234018 0.027694227 0.06559229 -0.030428508 0.017450674 0.04208473
-0.15372539 0.06791085 0.0050430205 -0.08827277 0.024252785 -0.016049473 -0.046252828 0.040945362
0.03833894 -0.077966444 -0.04973215 -0.069647 -0.025252657 -0.091656625 0.011621168 0.014396127
0.0015511963 -0.090201475 -0.04423781 -0.19041687 -0.0007840461 -0.05163229 -0.030128403 0.018027354
0.3951348 0.010845528 0.024631403 0.022379637 -0.020148791 -0.1442038 -0.0009578717 0.012647305
00000000: ff69 613d ec84 873c 6696 c2bd e380 d1bd
00000010: 3fe3 973b bde8 27bc 858a 48bd 5a2d 9cbc
00000020: f9be 963e a7e1 263e cb94 e2bb e918 823c
00000030: bafc 55bd 20f4 8d3d e3a2 8fbd d3be 43be
00000040: b63e 123d 206b 23bd 6cdf b13d fdb6 423e
00000050: df2b f4bc dc85 f8bc 87b5 39bd 89c3 7dbd
00000060: 9a2a 9cba d41e f5bd d675 8cbe 615a a2bc
00000070: 54bf fbbd bf42 0dbe 1369 04bd 1bff b9bc
00000080: bf29 93ba fa19 41be 5d22 24bd 33ea 1e3b
00000090: 3aae d83d 7ad6 19bd 29c8 853c b04e 503c
000000a0: af35 5bbe b59c 95bd bc9e 57be 484b c4bd
000000b0: 597e 943c cd5d 44bd 5090 69bc 25e6 8c3d
000000c0: 2777 97bd 2f22 3a3d e1fe c5bd 56be 83bc
000000d0: a1a8 05be 093d f43b 711f e0bd 51c4 623c
000000e0: 3512 dc3d ee84 36bd 0450 a5bd b2ca 403c
000000f0: 1233 11bd a6fa e03d 258c ae3d 0732 fdbc
00000100: a67b 6c3d 8500 8abd 0e45 0dbd a624 9fbc
00000110: f70d d5bc cb72 053d 040b 10bd 888b 943e
00000120: 1897 02bd 2e41 60bd 793b c0bd 3726 0bbd
00000130: 9d66 c83c 4c75 9a3b 3be3 24be 8d0d 4dbc
00000140: 4af2 5e3e 1e0a 85bd c3da 51bd 01df e23c
00000150: 4055 863d 3545 f9bc b7f4 8e3c 0a61 2c3d
00000160: 306a 1dbe d814 8b3d ec3f a53b 5bc8 b4bd
00000170: c7ad c63c 2f7a 83bc 9b73 3dbd 53b6 273d
00000180: 4b09 1d3d dfac 9fbd f0b3 4bbd 16a3 8ebd
00000190: a9de cebc 78b6 bbbd b666 3e3c bcdd 6b3c
000001a0: 8351 cb3a 8dbb b8bd b532 35bd a4fc 42be
000001b0: 7188 4dba 617c 53bd d7cf f6bc 1aae 933c
000001c0: 1c4f ca3e 71b1 313c ccc7 c93c 8055 b73c
000001d0: 140f a5bc 29aa 13be af19 7bba a436 4f3c

lin2.weight f4 [84, 120]
-0.09576295 0.06793669 -0.09353996 -0.029375505 -0.07087059 -0.15865336 0.07445431 -0.030448379
-0.04846778 -0.04929516 0.0041879416 -0.04570471 0.094538935 -0.037753604 -0.028842945 -0.07730039
-0.0577425 -0.050206568 -0.003352611 0.022220924 0.055848572 -0.044031765 0.073323905 0.018251594
0.005698448 -0.019034585 -0.03686821 -0.014193848 0.020591846 -0.0023917235 -0.029339785 0.08560437
-0.015611781 0.22156124 -0.029289465 -0.026169246 -0.004454256 -0.08604485 -0.11234699 -0.05072503
-0.08343653 0.0076527586 -0.10648245 -0.1259999 -0.043505456 -0.05666534 -0.043484297 -0.070476584
-0.03655055 -0.1310209 -0.034209274 -0.034053314 -0.07653464 0.05576862 -0.024793591 0.06888033
-0.016859712 -0.05658773 -0.1353594 -0.036071602 -0.07350773 -0.10628458 -0.09538833 0.06714763
-0.096434414 0.018771017 0.008788044 -0.031725377 0.06462357 -0.07094025 -0.06384141 0.021967156
0.034119494 0.13341837 -0.075285524 -0.023938399 -0.1817911 0.09072032 -0.12639664 0.022301668
-0.02199394 -0.0331713 -0.064945474 -0.12783402 -0.030996751 -0.07613093 -0.027937122 -0.034081563
-0.09572913 -0.022942036 -0.0323793 -0.037824076 -0.063563704 0.006747854 0.03572686 -0.10843345
0.0006725797 0.018386053 0.06353628 0.07161147 0.033603407 0.06362243 -0.0044715754 0.043001715
-0.050354905 0.1078735 0.014199446 0.10878246 0.24424537 -0.1399442 -0.11588173 0.048291862
-0.078060545 0.06625027 -0.009535912 -0.02442686 0.053158592 0.092427604 0.006492537 -0.0031096083
-0.16788535 0.041402165 0.02473265 0.31702396 -0.21483193 -0.3839639 -0.011750218 -0.06190815
-0.120743446 0.033726662 -0.113243505 -0.21023376 -0.15154828 -0.026898324 0.04563842 0.15539628
-0.17117172 -0.067102544 0.028652014 -0.16462085 -0.2414813 -0.074049644 0.058411516 0.27067378
-0.20229407 0.21753146 0.26180494 0.112779416 -0.07573697 -0.32859808 0.0153850205 -0.085450254
0.064223625 -0.5307848 0.009746001 -0.006262789 0.016898828 0.018749734 -0.19469602 0.10946685
-0.2164054 -0.13907301 -0.1670453 0.06411798 0.0895862 0.32233074 0.014359172 0.061787277
-0.020496199 -0.13688113 -0.1856588 -0.016243886 -0.114751704 -0.08657814 -0.001138937 0.09059052
0.07635669 -0.039783753 -0.30320355 -0.035319056 0.005692038 -0.14282618 -0.12696666 -0.00253959
-0.26454672 0.33257318 0.06642451 0.07012916 0.08183993 -0.029334407 -0.057828285 -0.011414182
-0.2530077 -0.22277655 -0.010394306 -0.17405333 -0.08248625 0.07949403 0.1891987 0.029611543
-0.04338513 -0.008628201 -0.056263227 -0.38875464 -0.05112026 -0.011257706 -0.06874231 0.044954307
0.26548433 -0.2403317 -0.21722312 0.20363565 0.03820743 0.011537809 0.07154903 -0.14009933
0.0580663 0.0029812392 -0.07035129 -0.10623039 0.35210985 0.16211253 -0.15954497 -0.015276538
-0.06245835 -0.14059937 -0.06258339 -0.2667616 -0.046440892 -0.14346017 -0.08765554 -0.098368235
-0.17770469 -0.027711807 0.11932879 0.06332539 0.08450053 -0.19068684 -0.015409117 -0.030723983
-0.32227755 -0.096969 0.020233503 -0.078679144 -0.14498925 -0.20942166 0.095392406 0.018391803
-0.22671469 -0.43450293 -0.08284995 0.059005756 -0.0043953494 -0.087954715 -0.06360717 -0.1999329
00000000: 5e1f c4bd 6422 8b3d e191 bfbd e6a4 f0bc
00000010: 9a24 91bd 0776 22be 807b 983d e16e f9bc
00000020: 2786 46bd b9e9 49bd 003b 893b dd34 3bbd
00000030: a19d c13d 86a3 1abd 0a48 ecbc ab4f 9ebd
00000040: 6683 6cbd 67a5 4dbd 7bb7 5bbb a808 b63c
00000050: 79c1 643d a75a 34bd d82a 963d 5e84 953c
00000060: 0cba ba3b 6bee 9bbc 1f03 17bd 508d 68bc
00000070: 3bb0 a83c 76be 1cbb fd59 f0bc 5851 af3d
00000080: 8ec8 7fbc f3e0 623e 76f0 efbc e360 d6bc
00000090: 02f5 91bb 4838 b0bd 2e16 e6bd 0dc5 4fbd
000000a0: c5e0 aabd fec3 fa3b 7913 dabd 1e06 01be
000000b0: c732 32bd ea19 68bd 971c 32bd 0756 90bd
000000c0: 08b6 15bd 582a 06be 061f 0cbd 7d7b 0bbd
000000d0: 31be 9cbd a36d 643d ee1b cbbc 2111 8d3d
000000e0: 611d 8abc 89c8 67bd a89b 0abe d1bf 13bd
000000f0: 398b 96bd bbab d9bd f55a c3bd b284 893d
00000100: 687f c5bd adc5 993c bafb 0f3c 78f2 01bd
00000110: 5d59 843d 1f49 91bd 49bf 82bd 77f4 b33c
00000120: e2c0 0b3d d39e 083e 4c2f 9abd 761a c4bc
00000130: 7227 3abe 93cb b93d 1f6e 01be fdb1 b63c
00000140: a32c b4bc a1de 07bd 2202 85bd ece6 02be
00000150: e6ec fdbc 88ea 9bbd 64dc e4bc 1c99 0bbd
00000160: a20d c4bd f0f0 bbbc 28a0 04bd 6bed 1abd
00000170: b02d 82bd 1a1d dd3b 5456 123d 5b12 debd
00000180: 0f50 303a 599e 963c 4f1f 823d 09a9 923d
00000190: baa3 093d 7a4c 823d 4b86 92bb 9122 303d
000001a0: f240 4ebd c8ec dc3d cba4 683c 57c9 de3d
000001b0: 751b 7a3e 884d 0fbe 6753 edbd b0cd 453d
000001c0: 35de 9fbd 39ae 873d 843c 1cbc d71a c8bc
000001d0: d3bc 593d af4a bd3d 59bf d43b 92ca 4bbb
000001e0: 23ea 2bbe 5195 293d 209c ca3c f750 a23e
000001f0: e7fc 5bbe eb96 c4be fd83 40bc 6693 7dbd
00000200: 5748 f7bd f824 0a3d 36ec e7bd 8547 57be
00000210: 792f 1bbe e059 dcbc 5aef 3a3d 3420 1f3e
00000220: a447 2fbe 0f6d 89bd a1b7 ea3c 5e92 28be
00000230: e046 77be 57a7 97bd ea40 6f3d c195 8a3e
00000240: 2d26 4fbe 91c0 5e3e 4c0b 863e e5f8 e63d
00000250: fc1b 9bbd 023e a8be 7411 7c3c 8b00 afbd
00000260: ad87 833d 83e1 07bf b1ad 1f3c 1538 cdbb
00000270: 696f 8a3c 0b99 993c 655e 47be 2830 e03d
00000280: 6199 5dbe 2869 0ebe ec0d 2bbe 4a50 833d
00000290: f878 b73d 8908 a53e bc42 6b3c a814 7d3d
000002a0: a5e7 a7bc 912a 0cbe 571d 3ebe e611 85bc
000002b0: f102 ebbd e14f b1bd 6248 95ba 8687 b93d
000002c0: e560 9c3d 4af4 22bd 7f3d 9bbe b7aa 10bd
000002d0: 4784 ba3b 0741 12be 8c03 02be 406f 26bb
000002e0: ab72 87be 0847 aa3e 9309 883d e19f 8f3d
000002f0: b19b a73d b64e f0bc 5add 6cbd 8d02 3bbc
00000300: 3a8a 81be 891f 64be e14c 2abc 093b 32be
00000310: 8dee a8bd c4cd a23d 4ebd 413e e893 f23c
00000320: 9bb4 31bd 4c5d 0dbc 4574 66bd d90a c7be
00000330: 7a63 51bd 3e72 38bc c5c8 8cbd 0222 383d
00000340: 90ed 873e 8319 76be bd6f 5ebe dd85 503e
00000350: 657f 1c3d 1409 3d3c 4c88 923d 3376 0fbe
00000360: eed6 6d3d e560 433b 5614 90bd 528f d9bd
00000370: be47 b43e d400 263e c25f 23be 724a 7abc
00000380: 54d4 7fbd 48f9 0fbe b82b 80bd fa94 88be
00000390: ce38 3ebd 39e7 12be bf84 b3bd 4975 c9bd
000003a0: 38f8 35be df03 e3bc a762 f43d beb0 813d
000003b0: 9d0e ad3d 6943 43be 8576 7cbc ddb0 fbbc
000003c0: 9001 a5be af97 c6bd bbc0 a53c 8822 a1bd
000003d0: 1078 14be a272 56be 185d c33d 68aa 963c
000003e0: e527 68be 2b77 debe 3cad a9bd 05b0 713d
000003f0: dd06 90bb 9a21 b4bd 7a44 82bd 36bb 4cbe

lin2.bias f4 [84]
0.030177698 0.244446 0.31304258 0.088034816 0.020678759 0.12943092 -0.0020236725 -0.023204153
0.12571375 0.014368537 0.37265462 0.022979744 0.062286224 -0.06414767 0.2556075 0.15865232
0.19122733 0.09988299 0.062117714 -0.0071920105 0.032769 0.10428044 0.3247046 0.26741177
0.22790316 0.06496582 0.19881748 0.0070033935 -0.01492709 -0.044568025 -0.03277121 -0.061374713
0.14581977 -0.12708177 -0.019143386 -0.15850635 0.057871908 -0.021670386 0.16486676 -0.14766817
0.035841018 0.005385255 -0.032999657 0.25709605 0.041530814 0.2269256 0.13395472 0.09045374
0.4468024 0.13456808 0.22113678 -0.10448155 0.29162604 0.04508947 0.06536459 0.46534047
-0.047459614 -0.17653954 0.001002843 0.2073979 0.358651 0.017175628 0.06820362 0.009199788
0.2679654 -0.11436758 0.23048206 0.15082878 -0.1574641 -0.06404225 0.17161652 -0.077648476
0.1390336 -0.14140901 -0.035206206 -0.15531759 -0.020954728 -0.0737177 -0.16106161 -0.06504887
-0.039307352 -0.08489925 -0.09324007 -0.06600666
00000000: 3837 f73c 0d50 7a3e 1e47 a03e 994b b43d
00000010: 8066 a93c 8a89 043e 979f 04bb a316 bebc
00000020: 1bbb 003e 036a 6b3c 96cc be3e 0440 bc3c
00000030: d71f 7f3d db5f 83bd fcde 823e c175 223e
00000040: 19d1 433e 748f cc3d 256f 7e3d f5aa ebbb
00000050: c938 063d fc90 d53d ae3f a63e 32ea 883e
00000060: 725f 693e cd0c 853d cf96 4b3e b97c e53b
00000070: c190 74bc f68c 36bd 1b3b 06bd 0d64 7bbd
00000080: c751 153e b921 02be 97d2 9cbc 7d4f 22be
00000090: 180b 6d3d 1886 b1bc d5d2 283e 5336 17be
000000a0: 08ce 123d cb76 b03b a62a 07bd 18a2 833e
000000b0: 371c 2a3d 2f5f 683e 6d2b 093e cf3f b93d
000000c0: 49c3 e43e 37cc 093e ae71 623e 6cfa d5bd
000000d0: 0250 953e bcaf 383d dfdd 853d 1b41 ee3e
000000e0: 0365 42bd c8c6 34be d471 833a 1d60 543e
000000f0: 1ba1 b73e e7b3 8c3c 57ae 8b3d b5ba 163c
00000100: c332 893e 8d39 eabd 7d03 6c3e dc72 1a3e
00000110: 453e 21be 9528 83bd 3ebc 2f3e 2a06 9fbd
00000120: d35e 0e3e 86cd 10be 6234 10bd 930b 1fbe
00000130: 40a9 abbc 4ef9 96bd 56ed 24be 5838 85bd
00000140: bf00 21bd a8df adbd a6f4 bebd 802e 87bd

lin3.weight f4 [10, 84]
0.17385443 -0.05407273 0.6037861 -0.050969705 -0.16930626 0.04026778 0.09425605 -0.024740608
-0.17323126 -0.028061725 0.24784265 0.04407968 0.48148125 -0.013712888 -0.27389482 -0.027268305
-0.29099926 -0.08882751 -0.1885357 0.009529298 0.1962485 0.03644176 -0.052688148 -0.04087239
-0.093713515 -0.08735133 -0.30401635 -0.06716433 0.1762316 -0.052164145 0.39815658 0.035104126
-0.23446806 0.1965391 0.105870254 0.22285658 -0.07876055 0.0042232824 -0.0011034844 -0.061572414
0.37495443 -0.11168792 0.379279 -0.24521407 0.29819968 0.3677323 -0.25976402 0.74068165
0.0018939485 -0.093535125 -0.022888059 -0.004219319 -0.28260928 -0.14994943 0.3706384 -0.15089794
0.014532551 0.049981996 0.06440037 -0.21284793 0.4459935 -0.14432728 -0.22447574 0.40243468
-0.025409257 -0.065544374 0.4026135 -0.1648443 0.16670042 -0.095041454 -0.2463657 -0.03500165
-0.09441446 0.0022416548 -0.024179852 0.07759571 0.28643647 -0.20839602 0.10969436 0.08704301
0.045756225 -0.08514249 0.005015641 0.0093309125 0.074817725 0.06948685 0.003177627 -0.039146658
0.17239295 0.03283606 -0.004067002 -0.19977547 -0.13711807 0.1972123 0.02606446 -0.15964964
-0.03168609 -0.10779917 -0.016183918 0.002211931 -0.10849378 0.12181071 0.26699373 -0.10981293
-0.19878988 0.022641616 0.18441385 -0.1452881 0.40240422 0.05220689 0.11758789 0.0045626275
-0.110302255 0.01744517 -0.13543686 -0.035914317 -0.17736907 -0.058017857 0.17516848 -0.04899261
0.010253789 0.03236124 0.37589863 -0.014890339 -0.031458188 0.13799837 0.043488607 0.40610388
-0.034378674 -0.02052626 0.12538248 -0.2767234 0.06596381 0.14413697 -0.2023864 -0.14670058
-0.16039409 0.29165533 0.22447005 0.6522995 0.0042710598 -0.08975525 -0.05440263 0.4895746
0.1684741 0.22545543 0.056612175 0.109870486 0.441359 -0.021242004 -0.17677756 -0.015425281
-0.07877718 -0.10395962 0.015631655 -0.23697492 -0.060607553 0.020345978 -0.08894716 -0.13527937
0.10420593 0.049879003 -0.1769716 -0.050106432 -0.11547662 -0.16116968 -0.035138976 -0.026937325
0.13664764 0.25620723 0.40393853 0.21030667 0.5578266 0.16576692 0.07918996 0.10334128
-0.0821657 0.39707968 0.12777416 -0.09980275 -0.11309216 0.051546063 -0.16017778 -0.0456386
0.029073361 0.12924519 0.14393678 -0.032510463 -0.14273052 -0.18405128 -0.096378386 -0.22045171
0.17526637 0.06415037 0.06887756 0.020508435 0.023872623 0.118292384 0.17742859 0.08070585
0.2671409 -0.042809915 0.18565425 -0.073185235 -0.08987209 0.29935017 -0.26329306 0.11229349
0.46419492 0.20475642 -0.042184323 0.34265056 0.3107753 0.13684706 -0.008641026 0.13941509
-0.12492058 0.34231192 -0.1602834 0.28778931 -0.12127113 0.2786042 -0.05905456 -0.4655202
0.039662194 0.27460372 0.1553714 0.3800673 -0.39447895 0.17225525 0.07074971 0.020009048
0.20640467 -0.09355195 -0.06160517 -0.117365316 -0.14015935 0.06570767 0.69235194 -0.19735332
0.13178097 0.16107143 0.03977607 0.08850537 -0.08237151 -0.13522619 0.061141808 -0.07051947
0.1975356 0.002040692 -0.0044916654 0.1480198 0.17439084 0.57870674 -0.0048431233 0.359088
00000000: e506 323e 5e7b 5dbd ba91 1a3f 9cc5 50bd
00000010: 9f5e 2dbe d4ef 243d 5109 c13d d1ac cabc
00000020: 8963 31be b4e1 e5bc 77ca 7d3e e58c 343d
00000030: b684 f63e 05ac 60bc f13b 8cbe c861 dfbc
00000040: dbfd 94be 33eb b5bd 810f 41be c620 1c3c
00000050: 5ef5 483e f443 153d 87cf 57bd cf69 27bd
00000060: dfec bfbd 41e5 b2bd 08a8 9bbe 748d 89bd
00000070: 0e76 343e 12aa 55bd 2edb cb3e 58c9 0f3d
00000080: 6518 70be 8c41 493e 81d2 d83d 8434 643e
00000090: 364d a1bd 7663 8a3b cba2 90ba 5b33 7cbd
000000a0: 07fa bf3e a3bc e4bd db30 c23e 6619 7bbe
000000b0: a1ad 983e 6847 bc3e caff 84be 509d 3d3f
000000c0: 5e3e f83a 588f bfbd bd7f bbbc 3742 8abb
000000d0: 2ab2 90be 588c 19be 51c4 bd3e fd84 1abe
000000e0: f019 6e3c ecb9 4c3d 57e4 833d cff4 59be
000000f0: 4359 e43e 88ca 13be f8dc 65be eb0b ce3e
00000100: 1327 d0bc 213c 86bd 5b23 ce3e f2cc 28be
00000110: 84b3 2a3e 18a5 c2bd 4a47 7cbe e45d 0fbd
00000120: 5e5c c1bd bae8 123b d314 c6bc 80ea 9e3d
00000130: cda7 923e c465 55be 70a7 e03d 9b43 b23d
00000140: e16a 3b3d 305f aebd 3f5a a43b afe0 183c
00000150: 093a 993d 1f4f 8e3d bc3f 503b 3f58 20bd
00000160: c787 303e 1b7f 063d 7c44 85bb f191 4cbe
00000170: ae68 0cbe 05f2 493e 2285 d53c 327b 23be
00000180: 46c9 01bd d0c5 dcbd 2394 84bc 0bf6 103b
00000190: fd31 debd e577 f93d 67b3 883e 9ae5 e0bd
000001a0: 938f 4bbe e97a b93c fcd6 3c3e 67c6 14be
000001b0: ed07 ce3e e4d6 553d ebd1 f03d 1882 953b
000001c0: 26e6 e1bd 2ce9 8e3c f6af 0abe e41a 13bd
000001d0: 3da0 35be 22a4 6dbd 5e5f 333e 7aac 48bd
000001e0: 82ff 273c 388d 043d c975 c03e 9cf6 73bc
000001f0: 4dda 00bd 724f 0d3e 1c21 323d d9ec cf3e
00000200: a7d0 0cbd b026 a8bc 4464 003e b1ae 8dbe
00000210: 0918 873d a498 133e 613e 4fbe ad38 16be
00000220: 593e 24be d953 953e 7adb 653e 1afd 263f
00000230: 3ff4 8b3b 9ad1 b7bd 4bd5 5ebd 86a9 fa3e
00000240: 7984 2c3e cadd 663e 2be2 673d c703 e13d
00000250: cff9 e13e b603 aebc 2d05 35be 51ba 7cbc
00000260: ee55 a1bd c8e8 d4bd f50d 803c 8ea9 72be
00000270: a03f 78bd 9cac a63c ee29 b6bd ad86 0abe
00000280: eb69 d53d ed4d 4c3d 0b38 35be 673c 4dbd
00000290: 027f ecbd aa09 25be e3ed 0fbd aaab dcbc
000002a0: 5ced 0b3e 982d 833e 08d1 ce3e a25a 573e
000002b0: b9cd 0e3f cebe 293e 592e a23d 98a4 d33d
000002c0: 7e46 a8bd 074e cb3e 3bd7 023e 6265 ccbd
000002d0: dd9c e7bd f721 533d a505 24be 8aef 3abd
000002e0: 422b ee3c da58 043e 2a64 133e b129 05bd
000002f0: f327 12be f077 3cbe 0862 c5bd 18be 61be
00000300: 0779 333e 4561 833d ae0f 8d3d 4e01 a83c
00000310: 8590 c33c 4743 f23d d7af 353e 1c49 a53d
00000320: b1c6 883e 7359 2fbd 261c 3e3e 24e2 95bd
00000330: dc0e b8bd 6d44 993e 59ce 86be 21fa e53d
00000340: f5aa ed3e abab 513e 78c9 2cbd e56f af3e
00000350: f11d 9f3e a321 0c3e 1793 0dbc d4c2 0e3e
00000360: 5cd6 ffbd 8243 af3e 5521 24be 1f59 933e
00000370: 005d f8bd 36a5 8e3e 32e3 71bd aa58 eebe
00000380: d374 223d dc98 8c3e ae19 1f3e 2e98 c23e
00000390: 25f9 c9be ae63 303e 39e5 903d 04ea a33c
000003a0: bf5b 533e 2a98 bfbd b455 7cbd 3a5d f0bd
000003b0: ef85 0fbe be91 863d fa3d 313f fd16 4abe
000003c0: 97f1 063e e9ef 243e 3bec 223d 4e42 b53d
000003d0: 65b2 a8bd bc78 0abe d56f 7a3d 836c 90bd
000003e0: c646 4a3e 21bd 053b d22e 93bb 8192 173e
000003f0: 8393 323e 2026 143f 10b3 9ebb 62da b73e

lin3.bias f4 [10]
0.09965547 0.41920677 0.11789934 0.10708859 -0.06769191 0.07737653 -0.08423387 0.11753353
0.83570516 0.5079126
00000000: 2b18 cc3d 45a2 d63e 3675 f13d 4351 db3d
00000010: 0ea2 8abd 9677 9e3d cf82 acbd 6bb5 f03d
00000020: c6f0 553f 8f06 023f

momentum_buffer f4 [6, 1, 3, 3]
0.053301446 0.09400289 0.07024205 0.0835602 0.05062983 -0.0022102005 0.077844374 0.033100452
-0.015462773 -0.043245353 -0.0180112 0.0020540645 -0.038882624 -0.051564146 -0.08464684 -0.029894628
-0.055293247 -0.07807726 -0.03291511 -0.048303697 -0.03222722 -0.018630452 -0.019439539 -0.007930384
0.024186999 0.0015217785 -0.003923745 0.0012313165 0.003789435 0.004568083 -0.0009984346 0.0016152461
-0.00033156847 0.00490378 0.0012713704 -0.008350331 0.08176542 0.07292722 0.06428214 0.026020112
0.005975558 -0.0023530954 -0.0041403933 -0.010680488 -0.01696246 0.02358069 0.027252441 0.017300406
0.024575481 0.0099607 0.00067979994 0.013126094 0.0066182436 -0.0011347602
00000000: 9e52 5a3d 9684 c03d 10db 8f3d 9c21 ab3d
00000010: 3a61 4f3d 03d9 10bb df6c 9f3d 5794 073d
00000020: 9257 7dbc 0a22 31bd 398c 93bc 7c9d 063b
00000030: 6343 1fbd ed34 53bd 535b adbd 94e5 f4bc
00000040: 2c7b 62bd f8e6 9fbd ffd1 06bd 19da 45bd
00000050: b000 04bd e49e 98bc ab3f 9fbc 71ee 01bc
00000060: d023 c63c 6a76 c73a c292 80bb 2064 a13a
00000070: 2b58 783b dcaf 953b e8dd 82ba aab6 d33a
00000080: 5ed6 adb9 e3af a03b 1da4 a63a d4cf 08bc
00000090: a174 a73d de5a 953d 5ba6 833d 2128 d53c
000000a0: 9dce c33b 6436 1abb 23ac 87bb 37fd 2ebc
000000b0: dbf4 8abc 4b2c c13c 8340 df3c 95b9 8d3c
000000c0: 8552 c93c 3432 233c 9a34 323a d40e 573c
000000d0: dadd d83b 3cbc 94ba

momentum_buffer f4 [6]
0.10076593 -0.041007143 -0.023578968 0.0010712047 0.077193834 0.025640702
00000000: 5e5e ce3d 1bf7 27bd ae28 c1bc aa67 8c3a
00000010: cd17 9e3d 730c d23c

momentum_buffer f4 [16, 6, 5, 5]
0.011157233 0.0057813423 0.0027450041 0.006809293 -0.002445319 0.01119228 0.0046835653 0.0023008354
-0.0005956846 -0.004696908 0.0013851675 0.0013946485 -0.0024204503 0.00024011583 -0.008165887 0.0060774484
0.006222326 -0.003955116 -0.011427723 -0.02704884 -0.00068063143 -0.010273975 -0.0106785325 -0.023849381
-0.023282353 0.005580678 -0.003233778 -0.003130533 -0.0045799892 0.0061037866 0.0030042864 0.001172014
0.00052786287 -0.009720591 0.0023921588 0.0020634574 0.0043790643 0.0018348095 -0.0046143304 -0.0023888943
-0.0027153834 -0.004360136 0.019282624 -0.006047076 -0.004760162 0.004390079 -0.0129481945 -0.004192009
-0.023042068 -0.00597492 -0.000776357 0.004019852 -1.3726338e-05 -0.005373734 -0.0039756163 0.0020905582
0.0022929418 -0.003665676 -0.0030287502 -0.006617171 0.0012571242 0.0009025199 -1.2380507e-05 -5.3260344e-05
-0.002624889 -0.002895718 0.014563851 0.0048129465 -0.0012052604 -0.022351386 0.005370535 0.0061842278
-0.00074195804 -0.012993011 -0.020795763 0.00026584268 0.00059692777 1.548387e-05 1.2790748e-05 0.00010357778
-3.6351026e-05 -2.6675868e-06 -0.00026359834 5.4356616e-07 -1.9112813e-05 -0.00045894715 0.00061234174 7.0992886e-05
-0.0003025518 -7.718402e-05 0.00023379308 0.0014562773 -0.00075827335 -0.0007583064 -0.0034966655 0.00060135964
-0.00018413588 0.00038420112 -0.00019728331 -0.0016808043 0.009298984 0.0062198886 0.0011445349 -0.0011857393
-0.011687378 0.008075258 0.0021281615 0.0021422035 0.00014641225 -0.010758084 0.002356443 1.5934073e-05
0.0021932018 0.0003424642 -0.012420595 -0.00025793165 -0.0039023294 0.0018655895 0.0035675976 -0.01609603
0.0015400585 0.002553507 -0.00457794 -0.0046265773 -0.018182827 0.0055441903 0.005272622 0.0023564266
0.002570976 -0.006718452 0.005392572 0.0017102733 0.0017362908 0.0007360995 -0.0059272475 0.00029192402
-0.00019051597 -0.0021263417 -0.0009459041 -0.006006532 0.0004971553 -0.00048050532 -0.0029632729 -0.00014164491
-0.01763477 4.093977e-05 0.00036646496 -0.0033059367 -0.0056914226 -0.013104573 -0.0019483296 -0.0028404342
-0.00081053865 -0.010504202 -0.0069768564 -0.0014738607 9.414879e-05 -0.004567951 -0.003542783 0.0040762764
-0.004824563 -0.0049386565 -0.004812513 -0.008573697 -0.018292185 -0.0026810265 -0.0023439662 -0.009919813
-0.017285373 -0.012276082 0.0010533304 -0.0050965208 -0.012158616 -0.010844261 -0.003207481 -0.0007775795
-0.0091981795 -0.012520738 -0.0014735332 -0.007285376 -0.004465323 -0.0018431557 -0.011974159 -0.011607845
-0.017064625 -0.002440294 -0.0031616995 -0.0031707704 -0.014568352 -0.019119803 -0.00097315235 -0.001704237
-0.0010572172 -0.0032457886 -0.004881583 0.0005070355 -0.012365544 -0.014289668 -0.0036731216 -0.005466479
-4.2045707e-05 -0.009446599 -0.003812328 -0.0026895883 -0.0076456927 -0.00095969916 -0.0058026197 -0.010172532
-0.0020024655 0.00022105558 -0.004337735 -0.013031295 -0.012365561 -0.0052716807 -0.018355414 -0.0031975475
-0.003504233 -0.011091118 -0.019096509 -0.008825309 -0.0044744206 -0.0054228045 -0.0026011013 -0.0029162404
0.0057272054 -0.0018138884 -0.00093533297 0.0003321349 -0.0035603368 -0.0036278537 1.1523257e-05 -4.6866455e-05
-0.0008239281 -0.00013939166 -0.00092248834 -0.00016846647 -0.00010678658 2.954294e-05 0.000107301836 -9.96513e-05
4.7511545e-05 0.00019683574 -0.0015201237 -0.0012904002 -0.00010568922 0.00017503605 0.00013613311 -5.747924e-05
-5.6586217e-05 -7.3464355e-05 -0.000575508 -0.0023042406 -0.0055885124 -0.0030217841 0.0055616843 -0.0034943651
00000000: d4cc 363c 6a71 bd3b 87e5 333b 7d20 df3b
00000010: a541 20bb d35f 373c 9878 993b 9dc9 163b
00000020: b827 1cba 85e8 99bb 828e b53a a3cc b63a
00000030: 6ba0 1ebb 9ac7 7b39 36ca 05bc 5525 c73b
00000040: a7e4 cb3b eb99 81bb 583b 3bbc 8795 ddbc
00000050: 676c 32ba 2d54 28bc 03f5 2ebc c75f c3bc
00000060: a2ba bebc 1fde b63b cbed 53bb a129 4dbb
00000070: bc13 96bb 4602 c83b 90e3 443b 449e 993a
00000080: 4760 0a3a 1d43 1fbc c4c5 1c3b 123b 073b
00000090: 417e 8f3b fe7d f03a cf33 97bb ff8e 1cbb
000000a0: 93f4 31bb 79df 8ebb 98f6 9d3c 8d26 c6bb
000000b0: 22fb 9bbb a7da 8f3b aa24 54bc 1f5d 89bb
000000c0: b8c2 bcbc 43c9 c3bb 7084 4bba f6b8 833b
000000d0: 2c4a 66b7 2616 b0bb e345 82bb bf01 093b
000000e0: 2e45 163b d73b 70bb ff7d 46bb dbd4 d8bb
000000f0: 17c6 a43a 1697 6c3a dfb5 4fb7 dc63 5fb8
00000100: 5406 2cbb 16c6 3dbb 389d 6e3c ecb5 9d3b
00000110: d4f9 9dba 411a b7bc 50fb af3b 10a5 ca3b
00000120: f67f 42ba a3e0 54bc e05b aabc cd60 8b39
00000130: 257b 1c3a 5ce3 8137 d897 5637 e637 d938
00000140: 9e77 18b8 cb04 33b6 9233 8ab9 95e9 1135
00000150: 7454 a0b7 d89e f0b9 8f85 203a 04e2 9438
00000160: d19f 9eb9 dbdd a1b8 5a26 7539 8fe0 be3a
00000170: ddc6 46ba 15c9 46ba 5028 65bb 90a4 1d3a
00000180: 9914 41b9 9a6e c939 d6dd 4eb9 6f4e dcba
00000190: c45a 183c 35d0 cb3b 3804 963a cf6a 9bba
000001a0: 6b7c 3fbc 164e 043c a078 0b3b 3664 0c3b
000001b0: 3d86 1939 ad42 30bc 8e6e 1a3b 29aa 8537
000001c0: d2bb 0f3b c48c b339 c07f 4bbc 003b 87b9
000001d0: 39be 7fbb cc86 f43a 5bce 693b d2db 83bc
000001e0: cadb c93a bd58 273b 8b02 96bb 8b9a 97bb
000001f0: 27f4 94bc 0aac b53b f6c5 ac3b 476e 1a3b
00000200: d27d 283b 7626 dcbb 2cb4 b03b 402b e03a
00000210: 4094 e33a cdf6 403a 5b39 c2bb 610d 9939
00000220: 3ec5 47b9 185a 0bbb 8df6 77ba 71d2 c4bb
00000230: 8753 023a 55ec fbb9 7833 42bb 8486 14b9
00000240: cb76 90bc beb6 2b38 1822 c039 6aa8 58bb
00000250: 1d7f babb 90b4 56bc 185f ffba 9426 3abb
00000260: 547a 54ba d119 2cbc 1d9e e4bb 8f2e c1ba
00000270: bf71 c538 c0ae 95bb 092e 68bb 4992 853b
00000280: 5e17 9ebb 74d4 a1bb 49b2 9dbb b178 0cbc
00000290: 7ed9 95bc 29b4 2fbb 3a9d 19bb b686 22bc
000002a0: 0e9a 8dbc 9f21 49bc e70f 8a3a b700 a7bb
000002b0: ef34 47bc 21ac 31bc 9a34 52bb 7ad6 4bba
000002c0: f6b3 16bc c823 4dbc 9223 c1ba 2aba eebb
000002d0: d851 92bb 0b96 f1ba 432f 44bc d52e 3ebc
000002e0: 1dcb 8bbc 57ed 1fbb 8434 4fbb b3cc 4fbb
000002f0: 19b0 6ebc 22a1 9cbc 261b 7fba b460 dfba
00000300: 5392 8aba 4cb7 54bb b0f5 9fbb 94ea 043a
00000310: da98 4abc 361f 6abc c1b8 70bb 2620 b3bb
00000320: 3c5a 30b8 e8c5 1abc 40d8 79bb ce43 30bb
00000330: b888 fabb 5294 7bba e723 bebb b1aa 26bc
00000340: cc3b 03bb 28cb 6739 8f23 8ebb 3681 55bc
00000350: ec98 4abc 10be acbb 185e 96bc f28d 51bb
00000360: 46a7 65bb 85b7 35bc 4870 9cbc 0798 10bc
00000370: 299e 92bb c8b1 b1bb 3d77 2abb 651e 3fbb
00000380: 48ab bb3b ffbf edba 2231 75ba 6422 ae39
00000390: 8a54 69bb 49c1 6dbb 0354 4137 7992 44b8
000003a0: e1fc 57ba aa29 12b9 25d3 71ba 60a6 30b9
000003b0: 9cf2 dfb8 fbd2 f737 3c07 e138 e2fb d0b8
000003c0: 2247 4738 b165 4e39 e33e c7ba a522 a9ba
000003d0: 78a5 ddb8 e289 3739 f4be 0e39 dd15 71b8
000003e0: fd56 6db8 e010 9ab8 b0dd 16ba be02 17bb
000003f0: d71f b7bb 2009 46bb ca3e b63b b801 65bb

momentum_buffer f4 [16]
-0.015325386 -0.0052021183 -0.009888412 -0.0030484213 0.0017974558 0.012782213 -0.007587904 0.004920016
0.0063346834 -0.0035214163 -0.0027433916 -0.022502651 -0.004333216 0.006654958 -0.02579534 0.005580151
00000000: 5417 7bbc 8876 aabb 0203 22bc 06c8 47bb
00000010: 9c98 eb3a 7d6c 513c f4a3 f8bb 1638 a13b
00000020: 2d93 cf3b 90c7 66bb 79ca 33bb 7b57 b8bc
00000030: a7fd 8dbb d511 da3b c050 d3bc b3d9 b63b

momentum_buffer f4 [120, 400]
-0.0036448424 -0.0022155775 -0.015858233 -0.0035123003 -0.0014613279 0.0016050417 0.0004596229 0.00024077609
3.93745e-05 -0.00016228769 0.0009721459 -0.0044143843 -0.007566893 -1.5750256e-06 -0.0043786177 0.0009325471
-0.00065093715 0.00050944445 0.0003282929 -0.0010329988 -0.0021361038 -0.0036731476 -1.3601759e-05 0.0005535012
-0.002007039 0.00019008809 -0.0038493713 0.0003574215 1.1290424e-08 6e-45 -0.003290909 -0.0010720928
-0.004205224 -4.640294e-09 3.052826e-10 -0.0019848642 -0.0010891532 0.00014200504 -2.5420606e-08 -0.00021754229
0.0005503763 -0.0039908565 2.631078e-08 7.503781e-05 -7.187648e-05 0.0009466826 -0.0004438057 0.000668801
-0.00019937613 -0.0015302378 -0.0013778501 0.0004121637 9.8906225e-05 0.00091727846 0.000949577 0.00018052896
-0.01725183 0.0007952805 0.00025669346 -0.0015333844 -0.006375136 -0.009635939 0.0032332456 0.0008823062
-0.0010789606 -0.00025935716 -2.5803296e-05 -0.0007155411 -0.005057508 -0.0043001706 -0.00023674848 -0.002805674
-0.015784897 -0.014660323 -0.00024019173 -0.001429182 0.0014337414 0.0023312778 0.0026822912 0.00018199948
-0.001648453 0.002420357 0.0015359032 -0.0024519644 -0.0014184302 0.00018716835 4.063869e-05 6.498692e-05
-0.00025254575 0.0009919356 -0.00044276752 0.00064273627 0.00062691944 0.00053757895 0.0003372896 -8.183979e-06
-0.002829106 -0.00030999773 0.0005817777 -0.0010744844 0.00018258143 0.00066745124 -0.0020376432 -0.0021742007
-0.00042678596 -0.0034337635 -0.0065997625 -0.004166492 -0.013933931 -0.0014367058 -0.003006081 -0.0028887317
0.0014405677 0.00031269813 0.0011736732 -7.509682e-05 0.00061762996 0.0018837276 -0.005253182 -0.0063541564
-2.3876313e-05 0.0018193421 -0.0019203927 0.00092690403 -0.0017948032 -0.00026299816 -0.0015149212 2.072384e-05
9.430669e-06 2.0740112e-05 -0.0018158208 5.724673e-05 -0.011097697 -1.5674081e-07 0.001116297 -0.000373934
-0.00065722916 -0.0003707141 1.8965711e-05 -0.00021154406 0.0005171489 -0.005528653 -6.931937e-05 0.0013889265
0.00078038836 0.0014373929 -0.0009104088 -0.0005717208 -0.0027609318 -0.0036306665 -0.0030026273 -0.009972105
-0.01105032 -0.00074823055 -0.00012312391 -0.0020165187 0.0006068277 0.0001729759 8.67816e-05 0.00011333152
0.0010724529 0.000655127 -0.0012159514 -0.0023700863 -1.0428615e-06 0.0008010823 0.0015408507 0.00016065846
-2.2838401e-07 1.7995127e-06 -0.00066559843 -0.0015116534 2.7185843e-05 4.1390464e-05 1.7353075e-05 -0.010903744
0.002646733 0.002486694 0.0001642291 0.0027873146 -0.00010097085 0.0026888058 -3.4173663e-06 0.00018961415
0.0004818647 0.0005916412 0.00033096015 -0.0014734617 0.0021062032 0.0023202533 0.00070922944 -0.0045242505
-2.7382977e-05 0.0019685486 0.0014950729 -0.0008384501 -0.005330823 9.109171e-05 -0.0016542015 -0.0004905389
-1.0633269e-06 -0.0015141348 -0.014600267 -0.009378401 -0.0011875576 -3.7653666e-07 -2.9255258e-05 -0.0010348172
-0.0043217703 -0.0019296516 4.5471097e-05 0.00018044362 -0.0023586424 -0.0015825978 -0.0060182274 5.601014e-10
0.0012765424 0.0011303757 -0.00013244011 -0.0019145124 1.8097693e-06 -0.00064632366 -2.325886e-05 1.5887292e-05
0.0003750084 0.00016257318 0.00043881897 -0.00032284245 -0.0033966624 -9.838899e-05 -0.00995646 -0.0048462534
-0.0003922522 -0.0014088198 -0.002708098 -0.00044139495 0.0011380201 0.0012482594 0.00015691045 -0.008119161
0.00037494622 -0.00019865646 0.0003805311 -0.000104331186 -0.0014013323 0.0010653449 -0.011173406 -0.009425929
2.3297745e-05 -0.00018831341 7.2914014e-07 0.00029693896 1.0104617e-06 6.8289654e-07 -0.000328002 -0.0006087053
00000000: 4fde 6ebb 3933 11bb 20e9 81bc 9f2e 66bb
00000010: 078a bfba 4360 d23a 8bf9 f039 d778 7c39
00000020: 0c26 2538 c52b 2ab9 9bd7 7e3a 8aa6 90bb
00000030: b3f3 f7bb 7865 d3b5 827a 8fbb 2d76 743a
00000040: a7a3 2aba 3d8c 053a ba1e ac39 b065 87ba
00000050: e0fd 0bbb 31b9 70bb 1c33 64b7 d618 113a
00000060: 8788 03bb 6252 4739 bc45 7cbb 4d64 bb39
00000070: cff7 4132 0400 0000 4bac 57bb 7785 8cba
00000080: facb 89bb 7570 9fb1 b5d4 a72f 7f14 02bb
00000090: ebc1 8eba 30e7 1439 815c dab2 101c 64b9
000000a0: 2147 103a bbc5 82bb 0402 e232 9e5d 9d38
000000b0: 64bc 96b8 cb2a 783a 98ae e8b9 7a52 2f3a
000000c0: 9f0f 51b9 4392 c8ba fa98 b4ba ad17 d839
000000d0: e06b cf38 8475 703a 09ed 783a 604c 3d39
000000e0: b653 8dbc 5f7a 503a d094 8639 d8fb c8ba
000000f0: 84e6 d0bb 0fe0 1dbc dce4 533b 914a 673a
00000100: e96b 8dba 54fa 87b9 2874 d8b7 2693 3bba
00000110: 74b9 a5bb 72e8 8cbb b03f 78b9 66df 37bb
00000120: 544f 81bc da31 70bc fadb 7bb9 6453 bbba
00000130: 61ec bb3a 5ac8 183b 61c9 2f3b 1dd7 3e39
00000140: e710 d8ba da9e 1e3b 5c50 c93a 23b1 20bb
00000150: 9fea b9ba 9f42 4439 7673 2a38 9649 8838
00000160: 1e68 84b9 d603 823a 4023 e8b9 4d7d 283a
00000170: da57 243a 50ec 0c3a 3ed6 b039 ec4d 09b7
00000180: 8668 39bb 3187 a2b9 7182 183a b7d5 8cba
00000190: 5473 3f39 e5f7 2e3a fb89 05bb 097d 0ebb
000001a0: 3ec2 dfb9 fe08 61bb d242 d8bb 1187 88bb
000001b0: 244b 64bc d94f bcba ac01 45bb e050 3dbb
000001c0: 6ed1 bc3a a2f1 a339 f0d5 993a 4c7d 9db8
000001d0: 72e8 213a 69e7 f63a e222 acbb 8736 d0bb
000001e0: fe49 c8b7 fe76 ee3a b0b5 fbba 7afb 723a
000001f0: 9a3f ebba 04e3 89b9 5290 c6ba 1cd8 ad37
00000200: 6a38 1e37 0dfb ad37 d600 eeba 351c 7038
00000210: 1dd3 35bc 964c 28b4 b650 923a 920c c4b9
00000220: e749 2cba 675c c2b9 8e18 9f37 edd1 5db9
00000230: 4691 073a b429 b5bb 8e5f 91b8 a40c b63a
00000240: fa92 4c3a e766 bc3a 80a8 6eba 89df 15ba
00000250: c0f0 34bb 7af0 6dbb bac7 44bb 0a62 23bc
00000260: 670c 35bc e724 44ba d31a 01b9 9227 04bb
00000270: 8513 1f3a dd60 3539 84fe b538 66ac ed38
00000280: 8c91 8c3a d4bc 2b3a 8f60 9fba 7353 1bbb
00000290: 73f8 8bb5 b9ff 513a 5ff6 c93a 6d76 2839
000002a0: b839 75b4 c986 f135 8e7b 2eba ac22 c6ba
000002b0: 270d e437 ac9a 2d38 7291 9137 9ea5 32bc
000002c0: d074 2d3b cdf7 223b ea34 2c39 61ab 363b
000002d0: 50c0 d3b8 ad36 303b e855 65b6 29d3 4639
000002e0: c9a2 fc39 5e18 1b3a b884 ad39 2c21 c1ba
000002f0: 3a08 0a3b 640f 183b 95eb 393a 2a40 94bb
00000300: 7fb4 e5b7 c402 013b 52f6 c33a 6fcb 5bba
00000310: 2fae aebb 7d08 bf38 cbd1 d8ba 8297 00ba
00000320: a2b7 8eb5 ef75 c6ba f535 6fbc dda7 19bc
00000330: d2a7 9bba ce26 cab4 3069 f5b7 b4a2 87ba
00000340: a39d 8dbb 5dec fcba 38b8 3e38 7735 3d39
00000350: 7493 1abb 2c6f cfba 8d34 c5bb a2f5 1930
00000360: a851 a73a 1d29 943a 9fdf 0ab9 60f0 faba
00000370: 33e7 f235 0c6e 29ba 061c c3b7 b345 8537
00000380: c79c c439 6878 2a39 4911 e639 2e43 a9b9
00000390: 8a9a 5ebb 3056 ceb8 6c20 23bc 52cd 9ebb
000003a0: 33a7 cdb9 26a8 b8ba 587a 31bb 076b e7b9
000003b0: 9e29 953a a39c a33a 5488 2439 3b06 05bc
000003c0: 6e94 c439 704e 50b9 0582 c739 61cc dab8
000003d0: e9ac b7ba 0ba3 8b3a a910 37bc 366f 1abc
000003e0: 876f c337 ff75 45b9 21ba 4335 79ae 9b39
000003f0: 339f 8735 4b50 3735 aff7 abb9 8591 1fba
