results/checkpoint.pth (torch_old, 496168 bytes, 20 tensors)

conv1.weight f4 [6, 1, 3, 3]
00000000: 6a50 ae3e 710a a33f 403e 013f 5310 923f
00000010: 09cc 26be b4ae 18bf a3bc db3e 7f6b cebe
00000020: e7b2 11bf 2115 623f bfed 733f 4351 1abf
00000030: 8d1c 2c3d c600 9f3f 3efb fd3d aa4d 09bf
00000040: 3066 4e3f 3f6e 943f 9da8 f03e a9c7 8a3f
00000050: d99c bc3f 7a68 ac3e 0fbd f8be 7746 02bd
00000060: 0a45 edbf bed4 a2bf 566c 42bf 6e87 3bbf
00000070: 6c99 9bbe 4bdf 23bf 361a 5f3e 5f0d 633f
00000080: f1f8 233f f6a7 70be 0501 173e 2c3c 00bf
00000090: bf17 8f3f a324 60be 1730 0dbf 799f b33f
000000a0: 610c 87bf 2f17 33bf 2aed 5d3f 5251 03bf
000000b0: a4a9 f43d 79d8 653e 53fa 113f 6bc6 28bf
000000c0: 7a4e 693f da74 4fbe 0033 e0be 4346 b5be
000000d0: 4281 1abf 32dd 09bf
0.34045726 1.2737561 0.5048561 1.1411232 -0.1628877 -0.59641576 0.42917356 -0.40316388
-0.5691361 0.8831349 0.95284647 -0.60280246 0.042019416 1.2422111 0.12401436 -0.5363413
0.80624676 1.1596144 0.47003642 1.0842181 1.4735366 0.3367346 -0.4858174 -0.03180548
-1.8536694 -1.2721174 -0.7594656 -0.73253524 -0.3039049 -0.64012593 0.21787342 0.8869228
0.6405173 -0.23501572 0.14746483 -0.50091815 1.1179122 -0.21888976 -0.55151504 1.4033042
-1.0550653 -0.6995725 0.8669001 -0.5129596 0.11946419 0.22445859 0.5702259 -0.6592776
0.9113537 -0.20259419 -0.4378891 -0.35405168 -0.6035348 -0.5385314

conv1.bias f4 [6]
00000000: 4a68 8abf 6a1b 15c0 33e2 4dbe a6fd 0bbf
00000010: 1c27 36bf fcc8 c13c
-1.0813076 -2.3297982 -0.2010582 -0.5468391 -0.71153426 0.023655407

conv2.weight f4 [16, 6, 5, 5]
00000000: 4b06 833e 0658 523e b844 cc3d 77b3 c3bd
00000010: 0c60 c43e 92cb 5f3e a141 6cbe 46f4 0dbf
00000020: bff3 b4be 8e7f 453e fb7a 0dbf c0b3 10bf
00000030: c235 36bf df33 0cbf 4c1f d4be 1d12 a13e
00000040: befe a93c 02e5 51be 9a83 cdbe 1459 07bf
00000050: c465 023e 9130 ca3c b704 b93c 49e1 ca3e
00000060: 7436 d53e 2c0e 1e3d 4211 243e 51b8 993b
00000070: 153b 093c 9fec 253e f553 7dbe 2ac6 a9be
00000080: 5e6a 29bf 5220 a4be 2fc3 c8bc 91fc c0be
00000090: f4f1 17be 12f7 fcbe 0f4b 42bf 5341 63bf
000000a0: bf66 b43d a330 3f3f e506 483e 6507 67be
000000b0: 1b93 b5bd 1963 f13e c11c d03e 6bde a83e
000000c0: 2b83 f83e 08a8 143f 621f 80bd 47f7 fe3d
000000d0: 80ae 49bd 5d6a 51be f7ee 8a3e 782b 063e
000000e0: 5bb2 9d3d db88 50be 4a8a 69bd b06c 263e
000000f0: 44b6 babe 9746 5cbe 057b b3be 1d9b 83be
00000100: 26b6 123e 9939 de3e 7655 343f 5b5a 243e
00000110: 2436 dbbd 1cca 50be c5e1 2fbf 4dfe b1be
00000120: 754a ffbd b18b 8dbd 04b8 123f 19b2 633e
00000130: 3400 1c3d f28b 57be 121c 8d3e 809a 173e
00000140: 2a85 0bbe 731c c4be d07c bebe 6e23 88be
00000150: 36e9 3fbe 2a17 513d 6d50 1dbe 1ada e9be
00000160: dae0 c0be dce8 44bf 5f9b a53d c229 133e
00000170: 1744 533e c97a 9a3c a58c ae3d f7c5 f8bd
00000180: 44cb 6ebc 0076 833e cd9c 843e 85c1 c13e
00000190: a130 ee3d fb8a a03c e379 a43e 2497 5b3d
000001a0: d667 f03d 41a8 1f3d 0514 d1be 9db7 1cbf
000001b0: bb12 bebe cde4 8f3b 174a 70be dd2c cabe
000001c0: 961c 54be 21ba 35bf e6c6 1dbe a007 8abc
000001d0: 119e c3bd cf33 e8bd c322 b8be b2fd 093e
000001e0: 966d 3f3e 5b7f ec3d 87ab c03d 2853 7c3e
000001f0: e1e4 733d 2f8a b13d 40bb 2f3e 23d4 da3d
00000200: dff7 ae3d 4041 653e e7db cbba fa9f 0ebe
00000210: cdfb 81bd 74be 3fbe 6ee3 b03c dcad 93be
00000220: af09 edbd 45d7 fbbd 9391 35be 1bea 96bd
00000230: be26 03bc 7047 25be 22e4 fbbd 08d6 69be
00000240: 37a8 783b 3316 cfbd 5e24 d0bd 2189 10be
00000250: 2dbf 8dbd ada1 233c 01be b33d 2a5f 543d
00000260: eb89 d43d ae5d e63d b7c5 d73e ad27 b23a
00000270: 8cb4 a33d 011e f0bd f5e1 d13d 1712 f33e
00000280: 8298 0abe be26 79bd ae87 67be f7c1 40bd
00000290: 9270 77be 3437 28be 7707 39be 0bbb 8ebe
000002a0: 286d 47be cb97 88be de2b b3bd 17ae 07bd
000002b0: fe72 9abd 8914 f3bd 6093 eb3d 4b54 7fbc
000002c0: 8f90 65be ed77 09be 7f22 bbbe f0e2 4a3d
000002d0: d6e7 4cbe d96e b8be e15b f23b 46e3 d63d
000002e0: c355 c63e f6be 0fbe 74fc 0dbe c5f7 89be
000002f0: 38f8 f13d a2a6 133f 9a0b 13be 4c26 e5bd
00000300: 2979 c7be 14e0 e4bd 1150 8e3e 4d23 2dbd
00000310: 284a f03d 3ad9 d73c 9735 3bbe d4e0 7ebe
00000320: 2d36 b23c a272 913e a6ad e5bc 6fd3 a1be
00000330: f113 c5bd b2d3 e9bb 3f64 c8bd a3e7 e7bd
00000340: 1167 ccbe 86b9 44be 55a3 f4bb a840 65bd
00000350: 41ca 503e 9e07 4e3e ed17 3d3e e60f ebbd
00000360: 36f5 c3bd a103 883e 27ee 303e 5526 d33e
00000370: a0f4 24be b48d 62bd febd 5dbe 4953 aebe
00000380: 8d7b fbbc 97e4 acbd ee4c afbd 96e7 263b
00000390: 6e97 043e f330 b13e 1aff d7bd 5209 91bd
000003a0: 524c c0bd 7a76 2bbd 6895 de3c 4404 21bd
000003b0: 1a7a b0bd 0954 27be ed3b 03be 3664 113e
000003c0: 83a2 3abe 868a 49be 641d 89be faef 3bbe
000003d0: 612f c43c c048 d1bc da91 a13d 9c7a 2cbc
000003e0: 0361 853c 6246 113c 5d8f b5bd dcaf d53d
000003f0: fb85 2cbe c5ac b3bc b88d 1dbe db7d 0d3d
0.2559074 0.20541391 0.099740446 -0.095557146 0.38354528 0.21855 -0.2307191 -0.55450857
-0.35342214 0.1928694 -0.5526578 -0.56524277 -0.7117578 -0.5476665 -0.41430128 0.31459132
0.020751353 -0.20497516 -0.40139467 -0.528703 0.12734133 0.024681361 0.022585256 0.39625004
0.41643107 0.038587734 0.16022208 0.0046911617 0.008375903 0.16203545 -0.24739058 -0.33159
-0.6617793 -0.32055908 -0.024507133 -0.37692693 -0.14838392 -0.4940725 -0.7589578 -0.8877155
0.0880866 0.7468359 0.1953388 -0.22561415 -0.08865949 0.47145918 0.40646937 0.3298219
0.48537573 0.58068895 -0.06255986 0.12449508 -0.04923868 -0.2045073 0.2713544 0.1310252
0.07700034 -0.20364706 -0.05701665 0.16252398 -0.36467183 -0.21511303 -0.35054794 -0.2570428
0.14327297 0.4340332 0.70442903 0.16050093 -0.10703686 -0.20389599 -0.6870387 -0.3476433
-0.124653734 -0.0691141 0.57312036 0.22235908 0.03808613 -0.21049479 0.27560478 0.14805031
-0.13625017 -0.38302955 -0.372046 -0.2658953 -0.18741307 0.05104748 -0.15362711 -0.4567421
-0.37671548 -0.76917815 0.08086275 0.14371398 0.20631443 0.018857377 0.085229196 -0.12147134
-0.0145748295 0.25675964 0.2590088 0.37842956 0.11630369 0.019597521 0.32124242 0.053610936
0.11738555 0.03897882 -0.40835586 -0.6121767 -0.37123665 0.004391289 -0.23465763 -0.39487353
-0.2071403 -0.70987135 -0.15407905 -0.016849339 -0.09551633 -0.11338007 -0.3596402 0.13475683
0.18694147 0.11547729 0.09407716 0.24641097 0.059544448 0.086689346 0.17161274 0.10684993
0.085433714 0.22388172 -0.0015553207 -0.13928214 -0.06346855 -0.18724996 0.021592822 -0.28843582
-0.115741126 -0.12296919 -0.17731313 -0.07368871 -0.008004842 -0.16140532 -0.12299372 -0.22835553
0.003794206 -0.10111656 -0.101631865 -0.1411481 -0.069212295 0.009987277 0.08776475 0.051848568
0.10377868 0.11248337 0.42143032 0.0013592147 0.07993421 -0.11724473 0.10248176 0.4747474
-0.1353474 -0.060827963 -0.22610351 -0.04705998 -0.24164036 -0.16427308 -0.18069254 -0.27877077
-0.19475234 -0.2667831 -0.087486014 -0.03312501 -0.07541464 -0.11869151 0.11502719 -0.015584062
-0.22418426 -0.13424654 -0.36549756 0.04953283 -0.20010313 -0.3602207 0.0073962067 0.10492568
0.38737306 -0.1403769 -0.13865834 -0.26946846 0.11814922 0.57676136 -0.14359894 -0.11188945
-0.38959625 -0.11175552 0.2779546 -0.042269994 0.11732894 0.026348699 -0.18282162 -0.24890453
0.021754349 0.2840777 -0.028036904 -0.31606624 -0.09622944 -0.0071358318 -0.097847454 -0.11323478
-0.39922383 -0.19211397 -0.0074657598 -0.055969864 0.20389654 0.20120093 0.18466158 -0.11477642
-0.09568255 0.2656527 0.17278348 0.41240183 -0.16108942 -0.05531092 -0.21654508 -0.34047917
-0.030698562 -0.084420376 -0.08559595 0.0025467626 0.12948391 0.34607658 -0.10546704 -0.07081856
-0.09389557 -0.041861035 0.027170852 -0.03931071 -0.08617039 -0.1634065 -0.12815829 0.14198384
-0.18226056 -0.19681749 -0.26780236 -0.18353263 0.023948373 -0.025547385 0.07889147 -0.010527279
0.01628161 0.008866878 -0.08865235 0.10433933 -0.16847984 -0.021932969 -0.15386093 0.034543853

conv2.bias f4 [16]
00000000: d4d5 f1be 791e 8dbe bb30 9dbd f907 42bb
00000010: c9dc a8bb 06b8 47bf fe63 9ebe 1078 d9be
00000020: e282 79bf 5477 08bd 5c31 9abe 0c41 19bf
00000030: db34 6ebf ce8d ea39 64af 90be ae44 55bf
-0.4723345 -0.2756231 -0.0767531 -0.0029606803 -0.0051532728 -0.7801517 -0.30935663 -0.42474413
-0.97465336 -0.033316925 -0.30115783 -0.5986488 -0.930494 0.0004473761 -0.28258812 -0.8330792

lin1.weight f4 [120, 400]
00000000: cc52 fc3c f467 493e e58c 5a3e 5680 e93c
00000010: 2728 483c a8fe 263d 1815 c63c 5e71 b0bd
00000020: 996d 07be 9d24 18be 5e04 afbc 7c91 9f3d
00000030: 40a6 16be 00f4 a8bd 210b 373d 999d 65bd
00000040: 006a febd c99b 1bbe 38ff d7bd 2f2d d9bd
00000050: 7c22 c7bb 37c1 89bd c314 96bd e628 09be
00000060: 131b c0bd 5e84 7b3d 53f3 e83d 8feb a4bc
00000070: aa6c 3dbd dd80 353d 10f9 3ebc dcd8 04be
00000080: a86e 83bd c299 50bd f967 b43b 5536 f63d
00000090: e98b 2dbe fb3b b5bd 4e94 af3a d52b d03a
000000a0: 3b21 d9bd e009 e5bb f164 5abd 46fb c7ba
000000b0: 8385 0bbd b8aa 6fbe f9fe 9abd 1f8a b63d
000000c0: 6b2a 843c d388 2b3c f5f2 7abd fe49 65bd
000000d0: bedc 83bd 3c08 5abd b89d fbbc 6f24 2ebd
000000e0: 3305 d0bd 6a4f da3c 2421 783d 422e 583e
000000f0: e636 a1bd 03b1 d63d bcf8 7a3e 85b1 af3d
00000100: a79e 763b 614a 9ebd 815f 813d 3139 5e3d
00000110: 7207 6a3e 8353 8bbc 2c9a 01bc 1ef4 9a3d
00000120: dede 8b3e e146 3ebe 1670 1ebe 2d96 36bd
00000130: 6b4d d7bd e502 813d 4cf6 563d 55f7 993b
00000140: 7835 65bd a71b cbbd b065 363d 583c ab3d
00000150: 8489 04be d6a3 8bbd 0eac 75bd 40f0 843d
00000160: 5c61 3b3e 57fc b6bd 7704 4f3d 6568 d73d
00000170: 7798 93be fd07 fd3a df07 85bd 0954 23bc
00000180: 141c 9f3e 1921 d43c dcef a7bc 18cd 8ebd
00000190: 2014 a43d 5dbb f13d 69d2 a3bc 2f0c 50bc
000001a0: 44c8 87bd 0458 ac3b 01a4 813e c44b 243d
000001b0: a139 533d 6f62 683d c1b0 f33b 6699 88bd
000001c0: e54d 3cbd 72fc 113d 7f31 32bd f32d 513d
000001d0: 2348 c2bd 641b 223e 0182 413d e7d1 8f3d
000001e0: 2211 0fbe 44e0 67be 4d50 9cbd 7c1b 37bd
000001f0: 1319 b7bd b906 253d fc05 7f3d 69bf 1fbd
00000200: 130e 9f3b 37aa c63b 2dd2 ab3d ba79 18be
00000210: c4dc 37be c3d0 d53b 0845 dcba 3ff1 3dbd
00000220: afac 25be 518e 213e 11f5 de3c de2e 1e3c
00000230: 38bb dabd dea5 39be 8f3d 14be cccb cbbc
00000240: 5c0f 5b3d 4654 97be 8645 b63d 559b 463e
00000250: ceab 7cbd f7d3 3fba 3f8f 7ebd 0db8 2bbd
00000260: 471a 133d 678e a3bb 6a5c 84bd 1141 e5bc
00000270: 5dc1 45bd 15d4 cd3d 957d c73c 0f0a 553d
00000280: c32d 01be 473b ea3d 0a3b 4abd 4a87 e4bd
00000290: 6714 bbbd f50a 89bc 7688 ff3d 07cc 3cbc
000002a0: ee55 46bd 96d1 80bd 5e95 da3d 0a2c 3dbe
000002b0: a5de bdbd ffb7 52bd 66ef 4ebd e12d 26be
000002c0: 8d90 41be e85c 37bd 44b6 aebd 0f75 583e
000002d0: 7409 69be 7304 18be 3b0d 29bd c7eb 99bc
000002e0: 596d 793e ee1f 1ebe c007 d13d 075e 753e
000002f0: 171d 9abd 7b24 01be abc1 c43d 5270 413e
00000300: 8a58 0b3e 9ca6 5e3e 46b3 913d 54fd f33d
00000310: 56aa fa3d c1be eb3d f9a2 043e 57e4 83be
00000320: 7ab6 3bbd d37a 83bc 6ca1 123e ff4b 3c3d
00000330: 89a1 eb3c 3a6b 923d 4f1d 183d 7b9e b73d
00000340: 3cad be3e 2ea0 32be d088 2e3d fbd1 a53d
00000350: b3fd 563b 1791 f2bd c426 2b3e 6ce1 ae3c
00000360: d7fb 62bd aa7c 8c3d eb4d 09be 5f56 b4ba
00000370: 314b 0d3d 6dc7 80bd 5ace 80bd 4579 f0bd
00000380: e112 47be 2256 5aba 0fe1 0b3b e99b 8d3d
00000390: 355e 18be b493 023c 168e a2bd 0437 6e3e
000003a0: 85a7 953d 111a ff3d fd18 d03d 2756 aa3b
000003b0: 0ce7 4f3e ff1e aabd d0d2 1e3d 2eec 513d
000003c0: 7c14 6dbd 3515 55be 4e4c 33be a467 a1bd
000003d0: cdc6 9cbc 6281 12be 85d8 22be 0c14 c1be
000003e0: bcdf 73be 2d23 1ebe 740e 12bc 71e7 563d
000003f0: 1ca6 df3d 9fd0 49bb 65fe 143c 8eec efbd
0.0308012 0.19668561 0.2134281 0.028503578 0.012216604 0.040770203 0.02417998 -0.08615373
-0.13225402 -0.14857717 -0.021364387 0.07791421 -0.14711857 -0.08249664 0.044688348 -0.0560585
-0.12422562 -0.15196146 -0.10546726 -0.10604321 -0.006077109 -0.06726306 -0.07328179 -0.13394508
-0.09380164 0.061405532 0.113745354 -0.020131854 -0.04624621 0.044312347 -0.011656061 -0.1297335
-0.064175904 -0.050927885 0.0055055586 0.12022082 -0.16947903 -0.08849331 0.0013395639 0.0015882204
-0.10602041 -0.0069897026 -0.05331892 -0.001525738 -0.034062874 -0.23404968 -0.075681634 0.08913063
0.016133508 0.010469633 -0.061266858 -0.055978768 -0.064385876 -0.05323051 -0.030714855 -0.042515215
-0.10157242 0.026649196 0.06057848 0.21111396 -0.07871799 0.10482981 0.24508947 0.08578781
0.0037631185 -0.077290304 0.06317044 0.05425376 0.22854403 -0.017007595 -0.007910293 0.07566093
0.27318472 -0.18581726 -0.15472445 -0.044576813 -0.10512813 0.0629938 0.05248098 0.0046986737
-0.055959195 -0.09917384 0.04453057 0.08361119 -0.12943083 -0.068183586 -0.059978537 0.064911366
0.18298858 -0.08934849 0.050541367 0.105179586 -0.2882726 0.0019304749 -0.06495642 -0.009968766
0.3107611 0.025894688 -0.020500116 -0.06972712 0.08011651 0.11803315 -0.019997792 -0.012698217
-0.066299945 0.0052595157 0.25320438 0.04011132 0.05156863 0.0567345 0.007436842 -0.066698834
-0.045972724 0.03564114 -0.043504234 0.05106921 -0.09486415 0.15830761 0.047243122 0.070224576
-0.1397138 -0.22644144 -0.07632504 -0.044703946 -0.089403294 0.040289614 0.062261567 -0.039000902
0.0048539727 0.0060627717 0.08389697 -0.14890185 -0.17955309 0.0065251305 -0.0016805241 -0.04637265
-0.16179155 0.15776946 0.027216466 0.009654729 -0.106802404 -0.1812968 -0.14476608 -0.024877451
0.053481445 -0.29556483 0.08899979 0.19395192 -0.061687283 -0.0007317657 -0.06214833 -0.04192357
0.035913732 -0.004991341 -0.06462939 -0.027985128 -0.04828011 0.10050217 0.024351874 0.052011546
-0.12615113 0.114370875 -0.04937271 -0.11158617 -0.09134751 -0.016728858 0.124772 -0.011523253
-0.048421793 -0.06289975 0.10673021 -0.18473831 -0.09270982 -0.051445004 -0.050521277 -0.16228439
-0.18902798 -0.044766337 -0.08530858 0.21138404 -0.22757512 -0.14845447 -0.041272383 -0.018789185
0.24358119 -0.15441868 0.10206556 0.2396165 -0.0752508 -0.12611572 0.09607252 0.18890503
0.13607994 0.21743244 0.07114272 0.11913553 0.1223952 0.11510993 0.12952794 -0.25760147
-0.04582832 -0.016049778 0.1431939 0.045970913 0.02876355 0.07149358 0.037137326 0.089657746
0.37241542 -0.17443916 0.042610943 0.08096691 0.0032805025 -0.1184408 0.16714007 0.021347724
-0.055415954 0.06859715 -0.1340863 -0.0013758651 0.034495536 -0.062880374 -0.062893584 -0.1174188
-0.19440795 -0.0008328875 0.0021343862 0.06914503 -0.14879687 0.0079697855 -0.07937257 0.23263174
0.073073424 0.12456144 0.10161016 0.0051982584 0.20302981 -0.08306693 0.038775265 0.05125063
-0.057880864 -0.20808871 -0.17509577 -0.07881096 -0.019137764 -0.14307168 -0.15902908 -0.37710607
-0.23815817 -0.15443106 -0.008914579 0.052466813 0.10920355 -0.0030794514 0.0090938555 -0.11715041

lin1.bias f4 [120]
00000000: d675 663d 1c2f 533c a392 c4bd 67f6 d2bd
00000010: fbd1 d43a 737b 94bc 019b 48bd 8e6d 48bc
00000020: 5aa4 973e 58a0 1c3e 59f4 07bc c06f 793c
00000030: fc9a 47bd 5ddd 8d3d ac07 91bd 9dc2 41be
00000040: 13ac 0c3d 0dcb 20bd d776 ac3d 9bfc 483e
00000050: 3d5b c6bc b09e 0abd 07ab 33bd 259d 85bd
00000060: 93a9 423a 523e 00be bd18 8bbe b663 aebc
00000070: 97ab fabd 50ef 0abe 1369 04bd a9e1 b9bc
00000080: e567 93ba 104e 3bbe dd21 24bd 1dcd ad3a
00000090: 0927 d43d 6ed2 23bd a88f 9a3c 4f1a 273c
000000a0: 756b 5ebe c228 96bd 9985 52be c13c c0bd
000000b0: 4e49 8e3c 1d2d 37bd 70f6 90bc 123b 873d
000000c0: 35f4 92bd 495c 343d 20ae ccbd 772c 92bc
000000d0: 9378 05be ca7e 5e3c 7f4f d3bd 5505 2c3c
000000e0: 73c8 da3d d549 36bd 5e94 9bbd 49c2 403c
000000f0: 51e8 1cbd 33bf d83d 3411 ad3d 7768 00bd
00000100: 4dc9 673d 3bd3 81bd ff55 07bd 2823 9fbc
00000110: 70ac d5bc 6fac 053d 839d 1abd e5bb 933e
00000120: edaf 02bd 825c 50bd b494 c5bd 441b dbbc
00000130: a051 f53c d90b 9f3b 1602 20be be35 43bc
00000140: de4a 603e ef3b 84bd 5d23 5fbd 625e e33c
00000150: 7577 843d 88e8 04bd b949 ca3c 112d 2c3d
00000160: 99a5 1cbe b54c 8d3d b9a4 573b 7f55 b4bd
00000170: 12f9 7e3c 6d6d dfbc 737c 3ebd 9026 273d
00000180: b0be 043d 7cae a0bd 6df7 50bd 5925 88bd
00000190: 61d1 cdbc 9333 c4bd f2c1 093c b85c 9d3c
000001a0: e171 cb3a 57c8 c6bd b532 35bd 7e4e 45be
000001b0: 711f 4d3b 9ecb 77bd ae69 efbc 0417 153c
000001c0: 839e cd3e f107 2b3c 15f9 d73c 3da6 ad3c
000001d0: 140f a5bc c193 19be 6e82 91bb 869e 6b3c
0.05626472 0.01288965 -0.09598281 -0.10300904 0.0016236895 -0.018125271 -0.04897595 -0.012233151
0.29617578 0.15295541 -0.008298003 0.015224397 -0.04873179 0.06926987 -0.070815414 -0.18921895
0.03434379 -0.039256144 0.084211044 0.19627611 -0.024213428 -0.033842742 -0.043864276 -0.065241136
0.0007425781 -0.12523773 -0.2716731 -0.02128778 -0.122397594 -0.13567853 -0.03232677 -0.022690611
-0.0011246173 -0.18291497 -0.040071357 0.0013259981 0.10359008 -0.039995603 0.018867329 0.010199144
-0.21720679 -0.07331993 -0.20558776 -0.09386588 0.017368939 -0.044720758 -0.017695636 0.06603064
-0.07175485 0.044033322 -0.09994149 -0.017843468 -0.13034277 0.013580034 -0.10317897 0.010499318
0.10682764 -0.044504005 -0.07596658 0.011765071 -0.03830749 0.10583343 0.08450547 -0.031349625
0.05658846 -0.06339117 -0.033040997 -0.019425943 -0.026083201 0.03263515 -0.03774787 0.2885429
-0.031906057 -0.050869472 -0.096475035 -0.0267464 0.029946148 0.0048537073 -0.15625796 -0.011914669
0.2190356 -0.06456744 -0.054477084 0.027754966 0.06468097 -0.03244832 0.024693357 0.042035166
-0.15297545 0.06899396 0.003290458 -0.088053696 0.015562313 -0.027273858 -0.046505403 0.04080826
0.032408416 -0.0784578 -0.051017214 -0.066477485 -0.025124254 -0.095801495 0.008408057 0.01920925
0.001552161 -0.097061805 -0.04423781 -0.19268224 0.0031299258 -0.06049692 -0.029225197 0.009099726
0.40159997 0.010438905 0.026363889 0.021197433 -0.020148791 -0.1499777 -0.0044405973 0.014381057

lin2.weight f4 [84, 120]
00000000: 74bc b8bd e63c a23d 7e3d bcbd 0185 51bc
00000010: 1704 7ebd 4c01 24be 9c7a 983d a4ab 1fbc
00000020: 1987 40bd 941f 26bd 6448 423b 2dbe 36bd
00000030: 476b cb3d 77a1 10bd df97 f1bc b8e7 afbd
00000040: 2f9c 70bd fe4a 65bd 2d84 123b 4feb a53c
00000050: b68e 483d 6e00 30bd f2ae 9b3d d904 d13c
00000060: 8b5a 39bc f213 e3bc 8452 3fbd 0f68 80bc
00000070: e4f1 943c 59f9 7b3b fd59 f0bc 5851 af3d
00000080: 8ec8 7fbc d738 733e 76f0 efbc f379 0bbc
00000090: a64d 36bb 7f66 a2bd c9f1 d2bd 2168 40bd
000000a0: 2136 b0bd 9b6a 9cba 4dc9 d6bd 4cb5 02be
000000b0: 8522 32bd 25bc 55bd c671 42bd d91c 95bd
000000c0: d6d3 1ebd 236a e8bd 061f 0cbd 5283 d6bc
000000d0: 9b35 95bd 2feb 063d cccf cfbc d23c 733d
000000e0: cacc a7bc 80e7 67bd e1a4 05be d5bf 13bd
000000f0: 94cd 65bd 1861 c2bd e0b1 c9bd b284 893d
00000100: 6348 c8bd 2f17 913c f651 a53c 78f2 01bd
00000110: 5d59 843d 6049 91bd 8880 82bd f467 ca3c
00000120: 7c4a 333d cf66 0d3e a6db 99bd 4eaa e6bc
00000130: 052b 36be 58ca b93d 12a8 ffbd a398 0b3d
00000140: 24f1 aabc 3319 08bd 8834 81bd 315c ffbd
00000150: e02e 03bd 4068 84bd 897c c9bc 1c99 0bbd
00000160: ddeb d7bd 8e86 b4bc f6ab cebc 87ec a3bc
00000170: cc85 90bd 15a4 f5ba c235 123d 29d8 debd
00000180: 3abe 433a 799a 7a3c 0fae 813d 018d a13d
00000190: baa3 093d 343a 823d 44ec d3bb 9b4c 9a3c
000001a0: f240 4ebd 655b d23d cba4 683c 5f8f bf3d
000001b0: 60b6 6e3e a0f1 0bbe e36c cbbd 2981 5e3d
000001c0: 9781 9ebd 136c 833d 9107 2dbc d84a c4bc
000001d0: d3bc 593d bbb2 c53d 8824 0a3c f231 b03c
000001e0: 01bd 1cbe 7863 233d d464 85bc 47f1 963e
000001f0: ed28 5dbe 36bc b7be fd83 40bc 9bdc 9bbd
00000200: ed3f f7bd 5ead 3a3d ada7 e7bd 990d 59be
00000210: 5b7d 2bbe 28c0 84bc 1cf9 413d 3a4c 143e
00000220: 5aea 14be e4c0 82bd 25ba 183c 266e 24be
00000230: d61f 7abe ee8d 97bd f606 733d aea8 8c3e
00000240: 69a2 57be 1e6c 7e3e ad2a 8b3e a678 d83d
00000250: b730 96bd 14e3 a6be 7411 7c3c 8b00 afbd
00000260: ad87 833d 2796 0dbf b1ad 1f3c ae95 5ebc
00000270: 691a 2c3c 9236 913c 3d40 55be cd31 e03d
00000280: cd3e 35be 8f05 1fbe c3c2 03be 8301 ab3d
00000290: 8777 b63d d283 943e 45a5 c73c 9ea5 7d3d
000002a0: 3058 b0bb 51e2 0abe 571d 3ebe 80f6 84bc
000002b0: 1a5d efbd 350f c9bd 2c82 973c dee4 b83d
000002c0: 8376 9c3d 70f3 22bd 6d2a 93be b7aa 10bd
000002d0: d7d0 663c 7fdc f7bd c9d1 0ebe 406f 26bb
000002e0: d2ca 89be 8541 aa3e 6407 563d e19f 8f3d
000002f0: 6a9b a73d b64e f0bc 0f08 63bd d0eb 1fbc
00000300: 8283 82be b869 66be aa8e 263b 3938 36be
00000310: 7d43 c3bd c4cd a23d 6d30 5a3e 0526 863c
00000320: 10b4 30bd 768a 0dbc 7bbf 67bd 9201 c9be
00000330: b29f 51bd c43d 32bc 7791 90bd 0222 383d
00000340: dd44 973e b4cd 71be 821b 5fbe 1321 563e
00000350: 9897 483d 1832 343d 4c88 923d 31b5 0ebe
00000360: 6e29 623d dbe7 013c c039 90bd dbf8 d4bd
00000370: a953 b43e bf67 183e af12 24be 88d8 d8bc
00000380: 54d4 7fbd 8c00 08be b82b 80bd 2cf8 88be
00000390: 52a4 26bd 9e91 13be b4a3 c0bd be66 c9bd
000003a0: 51f9 35be 2b6b e3bc c396 e93d 69b2 813d
000003b0: 9d0e ad3d 47d2 40be 0397 89bc 9e4c 78bd
000003c0: 6bec 9bbe 3d25 b6bd 23fb 973c d5b2 93bd
000003d0: 1885 15be 2f88 68be 0c5d c33d 8242 b23c
000003e0: 8f5d 68be a7cf d7be 8707 abbd 62ca 853d
000003f0: 513c e6bb 169b acbd 3b68 81bd fd71 5bbe
-0.090203196 0.07921772 -0.09191416 -0.012788058 -0.06201562 -0.1601612 0.07445261 -0.009745512
-0.04700384 -0.04055746 0.00296452 -0.04461496 0.09932571 -0.035310235 -0.029491363 -0.08589119
-0.0587427 -0.05597972 0.0022356615 0.020253805 0.048964225 -0.04296916 0.076017275 0.025515007
-0.011313091 -0.027719472 -0.046709552 -0.015674619 0.018181749 0.0038448183 -0.029339785 0.08560437
-0.015611781 0.23752151 -0.029289465 -0.008512962 -0.0027817278 -0.07929706 -0.10300023 -0.046974305
-0.08604074 -0.0011933626 -0.10487614 -0.12764472 -0.04348995 -0.05218138 -0.047471784 -0.07280893
-0.03877624 -0.11348369 -0.034209274 -0.026185665 -0.07285615 0.032939132 -0.02536764 0.059384175
-0.020483393 -0.05661726 -0.13051178 -0.036071617 -0.056104258 -0.094911754 -0.0984838 0.06714763
-0.09779432 0.01771125 0.020180684 -0.031725377 0.06462357 -0.07094073 -0.06372172 0.024707772
0.043772206 0.1380875 -0.07512598 -0.02815738 -0.17789848 0.09071797 -0.12483229 0.034081113
-0.020866938 -0.033227157 -0.06308848 -0.12468756 -0.032027125 -0.064651966 -0.024595516 -0.034081563
-0.10543034 -0.022036817 -0.025228482 -0.020010246 -0.0705677 -0.0018740917 0.0356958 -0.10881073
0.00074670056 0.015295618 0.06332027 0.078882225 0.033603407 0.063587576 -0.006467374 0.018835356
-0.050354905 0.102713384 0.014199446 0.09353518 0.23311758 -0.13666391 -0.09932878 0.054322395
-0.07739561 0.06417098 -0.010560886 -0.02396147 0.053158592 0.09653231 0.008431561 0.02150819
-0.15306474 0.039889783 -0.01628343 0.29480955 -0.21597643 -0.3588578 -0.011750218 -0.076104365
-0.1207274 0.045575492 -0.113112785 -0.21196593 -0.16747038 -0.016204908 0.04735671 0.14482203
-0.14542523 -0.06384447 0.009321724 -0.16057643 -0.24426207 -0.07400118 0.05933281 0.27472442
-0.21058048 0.24845931 0.27180997 0.10569887 -0.0733351 -0.32595122 0.0153850205 -0.085450254
0.064223625 -0.5530724 0.009746001 -0.013585491 0.010504344 0.017726216 -0.20825286 0.10946999
-0.17699738 -0.15529464 -0.12867264 0.08349898 0.08909517 0.2900682 0.024370799 0.061925523
-0.0053816065 -0.13562895 -0.1856588 -0.016230822 -0.116876796 -0.09817354 0.018494688 0.09028028
0.07639792 -0.03978294 -0.28743306 -0.035319056 0.014087877 -0.12102603 -0.13947214 -0.00253959
-0.26912552 0.33253112 0.052253142 0.07012916 0.0818394 -0.029334407 -0.055427607 -0.009760812
-0.25490957 -0.22501266 0.0025414624 -0.17794885 -0.09534357 0.07949403 0.21307535 0.016375551
-0.04314047 -0.008638969 -0.056579094 -0.3925901 -0.051177688 -0.010878984 -0.07058995 0.044954307
0.29544726 -0.23613626 -0.21787837 0.20911054 0.048972696 0.043993086 0.07154903 -0.13936307
0.05521529 0.007928814 -0.07042265 -0.10399028 0.35220078 0.14883326 -0.16022752 -0.026470438
-0.06245835 -0.13281459 -0.06258339 -0.2675184 -0.04068405 -0.14411017 -0.09406224 -0.0983405
-0.17770888 -0.027761063 0.11405709 0.06332857 0.08450053 -0.18830214 -0.01679564 -0.060619943
-0.3045381 -0.088938214 0.018552369 -0.07211844 -0.14601552 -0.227082 0.09539232 0.021760229
-0.2269194 -0.42150614 -0.08351045 0.06532742 -0.0070262332 -0.08428018 -0.063187085 -0.21430202

lin2.bias f4 [84]
00000000: e7c4 db3c 2f14 703e ec4e 9c3e 4b22 be3d
00000010: bda7 123d 0ee8 f73d 197d 31bc ddbc b5bc
00000020: 3133 fe3d f440 b03c 361b bc3e 8077 adbb
00000030: 3e66 323d c88e 84bd 9dd2 803e dcc6 203e
00000040: d2ce 3e3e dc7f ba3d 03f7 7b3d 87da 19bc
00000050: 6e81 f73c b785 b83d 60c4 a03e 8d16 833e
00000060: 6b61 663e 6c75 673d 423f 3a3e 2c90 7abc
00000070: 6079 7bbc 5892 3cbd 91de 17bd 1bb8 79bd
00000080: 97e0 0d3e c923 02be 76fa d1bc 41d7 25be
00000090: bf3c 623d 7f54 79bc ae6b 1f3e 9f28 17be
000000a0: 0af5 133d 4223 803b f78c 0fbd e429 7d3e
000000b0: 2646 133d 5a99 693e d350 ff3d 35b8 b33d
000000c0: ddc8 e63e a3e2 093e 8047 4a3e b459 d1bd
000000d0: ab4a 863e 6db5 3d3d a73f 533d e248 e53e
000000e0: 15b1 4abd 4748 32be 85cb b3bb 7a4a 573e
000000f0: 07df ab3e 1b4e 943c e69a 893d 543d 423a
00000100: 655e 833e 18b2 e8bd c8c9 5e3e 477c 023e
00000110: d917 25be 3665 85bd 055d 353e bb81 afbd
00000120: f250 0f3e 96d9 12be ca20 1abd 0b29 1cbe
00000130: 1de3 f7bc 8c1c bbbd c3da 25be dc54 8dbd
00000140: 6465 1bbd 6fe0 adbd 73eb c7bd 8782 8bbd
0.026827289 0.234452 0.30528963 0.092838846 0.0358045 0.12104808 -0.010833048 -0.022184784
0.12412108 0.021515347 0.3673951 -0.0052937865 0.043554537 -0.06472546 0.25160685 0.15700859
0.18633583 0.091064185 0.061514866 -0.00939048 0.030213084 0.09009879 0.31399822 0.25603142
0.224981 0.056508467 0.18188193 -0.015293162 -0.015348762 -0.046038 -0.03707749 -0.060966592
0.13855205 -0.12708963 -0.025632124 -0.16195394 0.055233713 -0.015217899 0.1556842 -0.1476159
0.03612236 0.003910453 -0.035046544 0.24723011 0.03595557 0.22812405 0.12466588 0.08775369
0.45075122 0.13465361 0.19753838 -0.10222188 0.26228842 0.0463156 0.051574375 0.44782168
-0.049485285 -0.17410384 -0.005486908 0.21024504 0.33568594 0.01810365 0.06718998 0.00074096513
0.25657955 -0.11362094 0.21756661 0.1274272 -0.16122378 -0.06513445 0.17711265 -0.08569666
0.13995722 -0.14340815 -0.037628926 -0.15250032 -0.030259663 -0.09136304 -0.16196732 -0.06900951
-0.03793849 -0.08490073 -0.09761705 -0.068120055

lin3.weight f4 [10, 84]
00000000: 4811 193e 0a1a 78bd 04e3 0f3f 7992 46bd
00000010: 34ba 0ebe 3b2f cf3c 807e be3d 8295 81bc
00000020: 5557 31be 9d53 96bc 26e2 613e bd88 4c3d
00000030: 3900 f13e 0991 3bbc f6e6 8dbe b1b5 debc
00000040: c292 95be 8a61 c8bd 2056 39be dce3 363c
00000050: cb19 313e 1c94 223d 58c6 5bbd 7735 26bd
00000060: 337e c0bd 4794 bfbd 379a 98be fd64 babc
00000070: 9133 1e3e 04f6 5dbd aba0 c23e 1983 fc3c
00000080: 0c0b 67be f4af 473e aa64 b93d 4ecb 553e
00000090: dee2 a0bd 5dbc 353c 3a3c c73b 2601 74bd
000000a0: 2e89 aa3e f95e ddbd 966b c73e d383 75be
000000b0: 7c40 923e fb67 b83e f370 84be 29d1 2e3f
000000c0: 04a5 efbb 08d0 87bd 22da b7bc aff3 44bc
000000d0: 57b9 8cbe 356b 0fbe 2c98 ad3e d0d8 04be
000000e0: 892f b13c 37d8 503d ec7d 703d 5e0c 54be
000000f0: 3f68 d13e f7f9 11be 9b1c 5cbe 4675 ae3e
00000100: fc96 c4bc 5935 86bd 0929 ce3e 4b17 21be
00000110: b746 4a3e 6df1 d1bd 9f5d 6ebe fa09 08bd
00000120: 0ae9 b4bd 739b 283b 7081 92bc d336 9f3d
00000130: cb01 8b3e 7dcf 51be d81d e23d bbfe b53d
00000140: 1ca3 3d3d 305f aebd ecbb bcbb 3b6f 353c
00000150: 84ef 6b3d d984 983d 2637 be3c 19f3 65bd
00000160: 4554 173e 3a37 ed3c 235f a5b9 cdc3 33be
00000170: d0da 05be 2163 643e f351 523d c497 1dbe
00000180: e49b ecbc 19fd dabd 3ce9 02bc 574c 513c
00000190: 488d a7bd 5036 ef3d afdc 6c3e c791 dfbd
000001a0: 3af6 3ebe d9e5 103d af3b 3d3e 1a2d 21be
000001b0: ea4e b23e 5f79 113d 2a82 e63d 3c33 1d3d
000001c0: 1357 d6bd adf9 c03c 70a1 05be b563 0dbd
000001d0: a485 18be 785e 7bbd 89c5 393e df80 38bd
000001e0: e5f0 473c 9376 823d 1cdf ab3e d192 193b
000001f0: d016 21bc 531b ff3d 0827 0b3d 7da0 ac3e
00000200: b63f 39bd 64c3 d0bc 74fa d93d 63ac 8abe
00000210: 37c1 b93d b4fb 003e 3ba5 44be 75b6 05be
00000220: 17a6 1fbe 3953 943e 5e86 533e 7e4f 183f
00000230: 394b 723b d9c6 b8bd 87dc 3ebd 9121 d83e
00000240: 354a 273e e9ef 473e b85f 5d3d 1f16 d23d
00000250: 5cca cd3e f165 a4bc fcf3 2abe 4ad3 283c
00000260: 2e1b 8abd 394d 6abd 5589 113d 386b 6ebe
00000270: f271 e7bc 4fc5 ab3c 982e abbd 0381 0abe
00000280: 707a dd3d 72b0 913d c9df 34be ffa6 34bd
00000290: e56a e4bd aa09 25be e91a 3abd 5b33 b6bc
000002a0: cf6e 3d3e 2807 693e 6d03 be3e 0e6b 573e
000002b0: 589c 063f 1eec 223e 291e 923d 5b6e bb3d
000002c0: 46ac a5bd 3d0e c43e 927d 003e c5c5 c4bd
000002d0: d189 dbbd 5d51 533d 03e1 0ebe 2093 2fbd
000002e0: 9f91 1abc 5760 333e 066b d53d d97b fdbc
000002f0: 8b27 0fbe 2029 26be ccca a2bd 5691 43be
00000300: 3848 583e 4f5e 893d 7d7f 9a3d 5f1d f33c
00000310: bc6e bf3c 176c 123e 63ae 333e a1f0 9e3d
00000320: 6adf 853e 41f4 4dbd 051e 2c3e c1b7 92bd
00000330: 9500 b5bd 192b 933e d49f 84be 3e74 033e
00000340: d71f d43e f7e9 603e 2889 babc ea32 ba3e
00000350: e1f6 9a3e a19e f23d 6e4a 82bc 5404 023e
00000360: 210c d9bd 989d 9b3e fbc4 19be e89e 993e
00000370: 68e3 fcbd 159b 9b3e c7c0 28bd f2e4 e0be
00000380: 6fec 0c3d 7e53 763e 4e2b 0f3e cbcc bf3e
00000390: 0e75 b8be de85 363e f927 9a3d 96d9 503d
000003a0: 627b 673e b9ec c2bd fbd8 7fbd 91eb bdbd
000003b0: fc2b 0bbe 7914 9a3d a568 253f 3905 48be
000003c0: be41 253e d989 133e aa44 1d3d a3ca b43d
000003d0: 080c 82bd 76f4 ffbd 9040 7c3d 626b 35bd
000003e0: 3943 203e 21bd 053b a619 823d b865 043e
000003f0: 8ccf e43d 5b64 0f3f 7cb2 9ebc 1486 aa3e
0.14947999 -0.060571708 0.56205773 -0.04847953 -0.13938218 0.025291076 0.09301472 -0.015818361
-0.17318471 -0.018350417 0.22058925 0.04993509 0.47070482 -0.011448153 -0.27715272 -0.027186247
-0.2921353 -0.09784229 -0.1809926 0.011162724 0.17294995 0.03969203 -0.053655952 -0.04057833
-0.093990706 -0.093544535 -0.29805157 -0.022753233 0.15449359 -0.054189697 0.38013205 0.030824231
-0.22562808 0.19500715 0.09052403 0.20878336 -0.078557715 0.011092273 0.0060801776 -0.059571408
0.33307785 -0.1080913 0.3894927 -0.23976068 0.28564823 0.3601683 -0.25867423 0.68287903
-0.0073133726 -0.06631476 -0.022442881 -0.012020989 -0.27485153 -0.1400574 0.3390516 -0.12973332
0.021629112 0.05098745 0.05871384 -0.20707843 0.40899846 -0.1425551 -0.21495287 0.34073848
-0.023997776 -0.06553144 0.40265682 -0.15731542 0.19753538 -0.102511264 -0.23277901 -0.03321264
-0.08833511 0.002572742 -0.017883986 0.07774129 0.27149805 -0.20489307 0.110408485 0.088864766
0.04629813 -0.08514249 -0.0057597067 0.011073883 0.057601467 0.07447214 0.023219656 -0.05614004
0.1477824 0.028956998 -0.00031542135 -0.17555161 -0.13071752 0.2230344 0.051347684 -0.15389925
-0.028882928 -0.10692806 -0.007990178 0.0127745485 -0.08181244 0.11680281 0.23131059 -0.10916477
-0.18648615 0.03537545 0.18479799 -0.15739861 0.34825832 0.03551614 0.112552956 0.03837894
-0.10465827 0.023556555 -0.13049865 -0.034518916 -0.1489473 -0.06136939 0.1814176 -0.045044776
0.01220343 0.063702725 0.33568656 0.0023433457 -0.009832099 0.124563836 0.03397277 0.33716193
-0.045226775 -0.025483795 0.10643473 -0.27084646 0.09070056 0.12596017 -0.19203655 -0.13057883
-0.15590702 0.28969744 0.20656726 0.59496295 0.0036971106 -0.09022302 -0.04659703 0.4221311
0.16336901 0.19525112 0.054046363 0.102581255 0.4019345 -0.02006814 -0.16694635 0.0103042815
-0.06743465 -0.05720255 0.03553136 -0.23283088 -0.028252576 0.020968108 -0.083584964 -0.13525777
0.10814369 0.071137324 -0.17663492 -0.044104572 -0.11153201 -0.16116968 -0.04543582 -0.022241285
0.18499301 0.22756636 0.3711199 0.21036932 0.5258231 0.15910384 0.07134659 0.09151908
-0.08089499 0.38292113 0.12547901 -0.09608034 -0.10719646 0.051591266 -0.13953023 -0.04286492
-0.009434133 0.1751722 0.10420804 -0.030942844 -0.13979928 -0.16226625 -0.07948837 -0.1909841
0.211213 0.06707441 0.07543848 0.029677091 0.023368232 0.14299046 0.17546992 0.0776074
0.26147014 -0.050281767 0.16808327 -0.071639545 -0.08838002 0.28743818 -0.2590319 0.12837312
0.41430542 0.2196425 -0.02277048 0.3636697 0.3026648 0.11846662 -0.015904631 0.12696964
-0.105980165 0.30393672 -0.15016548 0.30004048 -0.12348062 0.30391756 -0.04119947 -0.4392467
0.03440517 0.24055287 0.13981363 0.37460932 -0.36026806 0.17824504 0.075271554 0.050988756
0.2260566 -0.095178075 -0.062462788 -0.09273446 -0.13590997 0.07523436 0.646128 -0.19533242
0.1613836 0.14408053 0.03839556 0.088277124 -0.06349951 -0.12497799 0.06158501 -0.04429186
0.15650643 0.002040692 0.06352548 0.12929428 0.11172399 0.56012505 -0.019372217 0.33305418

lin3.bias f4 [10]
00000000: 25fc cf3d 32f2 d13e 211d 1c3e 25e6 af3d
00000010: 6716 5abd 9458 873d 809c bfbd 7245 093e
00000020: a580 553f e917 fb3e
0.10155515 0.41005093 0.15245487 0.085888185 -0.05324402 0.06608692 -0.09356022 0.13405398
0.8339942 0.4904168

momentum_buffer f4 [6, 1, 3, 3]
00000000: 585f 29bc 7449 3ebc 507a aebb eb9f 593b
00000010: 8b6c 82bc 90b6 d0bb e537 a03b 4747 47bc
00000020: 6ecc 02bc 893b 033b 042f 99ba bc46 fc3a
00000030: 5efc 74bb 3dfe 0dbc 6c4f 51bc f855 b4bb
00000040: 4a62 87bc 6b63 9abc ae76 81bb 3877 453b
00000050: 8089 d93b 801d a73b bab7 793c 9714 a33c
00000060: 4146 c63a 6c9f 343c a40a a93c 0dc0 3dba
00000070: 9295 443b b03b 3e3b baf1 84bc 02bd 7dbc
00000080: 828d 7cbc 8a5a 8ebc a665 96bc 5261 abbc
00000090: b053 b13c 89fc a13c 9650 423c ea99 8a3c
000000a0: 56e6 eb3b 20f4 6ab9 dc9f 703c fc94 a53b
000000b0: ec8e bb3b 64a2 e7bb 2e53 a8bb a38c abba
000000c0: a03d ad3a 3428 063b 1576 92ba 25b8 063c
000000d0: fe08 da3b 3e9f 373a
-0.010337673 -0.011614192 -0.0053246394 0.003320689 -0.015920898 -0.0063694194 0.0048894756 -0.01216299
-0.00798331 0.00200245 -0.0011686985 0.0019247155 -0.0037381868 -0.008666572 -0.012775283 -0.0055034123
-0.01652636 -0.018846234 -0.0039509153 0.0030130874 0.0066387057 0.005099952 0.015241558 0.019907279
0.0015127138 0.011024337 0.020634957 -0.00072383956 0.0029996377 0.0029027276 -0.016228545 -0.0154869575
-0.0154145975 -0.017377157 -0.018359017 -0.02092043 0.02164635 0.019773738 0.0118600335 0.016919095
0.007199089 -0.00022406923 0.014686551 0.0050531607 0.0057238247 -0.007068919 -0.005136869 -0.0013088178
0.0013217218 0.002047074 -0.0011174107 0.008222614 0.006653904 0.0007004625

momentum_buffer f4 [6]
00000000: efe9 3f3c 070f 83bb 8e91 cd3b 48dc a8bc
00000010: af63 db3c 4a97 5c3c
0.011713489 -0.003999594 0.006273455 -0.02061285 0.026780931 0.0134638045

momentum_buffer f4 [16, 6, 5, 5]
00000000: 7e5c d23b dbad 3b3c ea6e f23b fcfb 803b
00000010: 1e52 c93b 2b0c 253c dcf5 fb3b 3632 a4b9
00000020: e08b a739 279f bd3b a730 d63b e0c3 ab3a
00000030: b073 a737 6087 3137 5c80 6f3b 4b21 eb3b
00000040: fec6 4b3b 5263 c5b9 9160 333a 949d 81b9
00000050: 6ec8 f03b 8e2d d03a 4ae4 eb3b 2384 453b
00000060: 5362 debb 25cb bfba 79bf bcb9 d6ae ce3b
00000070: 0527 1c3c 67e3 b03b 10df f0b9 7598 d739
00000080: e691 ef37 1e65 f93a 436a 8e3b 46a3 ce3a
00000090: 35c2 663b 5865 bf3a 0a4c 80b9 6eee 0a3b
000000a0: 3e6a 42ba 71e1 0b3b 3187 d43b 1eb2 713b
000000b0: 1698 823b b066 8639 2ab4 c5ba 6c44 2a3c
000000c0: 319b 673c 8ad4 d83b 4afe f13b 4fc6 ad3c
000000d0: 7c99 d23c 44e3 343c 6ebe a7ba 97d2 ad3a
000000e0: c134 383b a107 043c f304 4f3c aa55 4a3b
000000f0: 656a a53a e2a8 8e3a 1952 ceb8 a390 3a3b
00000100: 2bbb 9f3a 755a a53b 46dc d33b 5e26 693b
00000110: 5664 0f3b 07dd 1eba 1ce3 023c 079e 2e3c
00000120: 043e 843c 9ea1 223c e499 843b 1736 6a3a
00000130: 5bbc 883a 03f4 fd38 6122 2839 2e4c 223a
00000140: b0cf 6b37 5b81 d136 53ca e936 451f 90b6
00000150: 5e57 083a a99c 34ba 2830 cfb8 e0ff d2b9
00000160: dc40 35b9 5bc8 3538 2394 8539 66e9 11b9
00000170: c348 833a 62ab a73a a185 6fba bb74 473a
00000180: 6242 c53a 8000 9eb6 002c c9ba f4dc 5dba
00000190: 9406 913b 7dc6 af3b 0805 533b b713 923b
000001a0: 3f25 d03b 7e86 c93b e3c7 ed3b 7bb2 1bba
000001b0: ce0f 103b 1c78 073c ea68 133c e35b 9f3b
000001c0: 850b b03a e60a 99ba 920e 733b 0cb0 bb3b
000001d0: 8d07 73ba 6a10 083b 4cf9 713b e717 6a3b
000001e0: 0364 dd3b 444e b5ba d305 90ba 5219 e13b
000001f0: fa74 fe3b 3ec1 143b 96c3 783b 3b76 b13b
00000200: e3f0 423b 0966 093b af68 9b3b bb31 bb3b
00000210: 4ed8 9139 db6b 063b 4dd4 cc3b 3fd9 b13b
00000220: 1e83 0e3b 0ea6 68b9 744f 1aba a0a0 cb3a
00000230: b44e 7d3b fd0f 3e3a e41a 8bba 740c c5b8
00000240: f0c5 8139 3b02 7a3b e819 9a3a 3ef2 753a
00000250: c1a4 173a d3b8 cdba 8b54 9bbb 4107 a0bb
00000260: e4c5 dd3a ae15 d1ba 39bb f2ba 71af 93bb
00000270: 297a 8439 1a89 983a 46a5 cfb9 a6ae deb9
00000280: 5e3b b3ba 126e cbb9 aa93 89ba 8851 083b
00000290: 5cf4 0d3a ec36 2dba 569a 48bb 3daf 56bb
000002a0: a18d 903a 605d be3a 331c 9fba 6db6 2dbb
000002b0: a3c3 05bb c09e 07bb df3c 1fbb 7e3d e539
000002c0: 4832 893a e3e8 803b 59ca 70bb fec1 81bb
000002d0: 3a05 8d3a b2a2 1c3a 0dbf be3b 6712 99ba
000002e0: 841f d7bb 69f7 ca39 4c51 3e3a 9ddc 3c3b
000002f0: f077 2dba bf6a 03bc b06e ae38 89cf 86b9
00000300: 9335 a039 c08e 7b38 8763 68bb d4ae 1239
00000310: 09f2 81ba e4f5 acba ecff 7939 f9be 25ba
00000320: 1c6a eeba 32b9 8fbb 13b3 b7bb 35aa 94bb
00000330: 183e 68bb d400 29bb d5de 463b 4511 c83a
00000340: aa20 f1ba 9b42 c1ba 8376 8239 b23c 633b
00000350: 915f 683b 3c23 aabb f465 4dbb 60c6 30ba
00000360: f03b 7539 29bc 233b e7a4 613a ae7b e0ba
00000370: 3e88 c6ba 9c3e c8ba 2cf7 28b9 5459 bfba
00000380: e5ef cbbb dbf6 5ab9 cc5c 89b9 6884 6ab9
00000390: 9d5a 68ba a99d 24ba ae20 ba37 7823 5938
000003a0: f72e 5739 3051 47b8 b2ad cd39 db59 66b9
000003b0: fa3a d7b9 80cb 76b8 eca6 0e39 c228 483a
000003c0: bd36 8438 62b0 3fb8 0b7b 76b9 1370 dab8
000003d0: 15cb e2b8 a96f 2db7 bdb0 c2b8 2728 f8b8
000003e0: 7c76 16b9 5206 6cb9 d2c4 8bbb 9fbe 5abb
000003f0: a2d0 8f39 7c1b 3b3b 47a1 9139 e12a 83bb
0.0064197173 0.011455025 0.007398476 0.003936289 0.0061438223 0.010073702 0.007689221 -0.00031317928
0.00031956937 0.0057867947 0.0065365615 0.001310464 1.9961823e-05 1.0581542e-05 0.0036545014 0.0071755997
0.003109395 -0.00037648767 0.00068426976 -0.00024722202 0.007348112 0.0015882717 0.007198845 0.0030138574
-0.0067866235 -0.0014632685 -0.00036000813 0.006307463 0.009530787 0.005398202 -0.00045942562 0.00041121585
2.855896e-05 0.0019027328 0.0043461635 0.0015765212 0.0035210971 0.0014602346 -0.00024470716 0.0021199244
-0.0007416344 0.002134409 0.0064858426 0.0036879848 0.003985415 0.0002563498 -0.00150836 0.01039229
0.014136122 0.0066171335 0.00738505 0.021212725 0.025707953 0.0110405125 -0.0012797841 0.0013261613
0.0028107616 0.0080584595 0.012635457 0.0030873814 0.0012620209 0.0010884071 -9.838137e-05 0.0028467558
0.0012186518 0.0050461837 0.0064654676 0.0035575847 0.0021879873 -0.00060601573 0.007988717 0.010657794
0.016142853 0.009926228 0.0040466655 0.00089344516 0.0010432111 0.00012109431 0.00016034536 0.0006191161
1.40554475e-05 6.2437443e-06 6.9674948e-06 -4.2951747e-06 0.0005201007 -0.0006889799 -9.879499e-05 -0.00040244963
-0.00017285667 4.334036e-05 0.00025478107 -0.00013915225 0.0010016192 0.0012792165 -0.0009137039 0.0007608642
0.0015049691 -4.708825e-06 -0.0015348196 -0.00084634055 0.004425833 0.005364238 0.0032199044 0.0044579166
0.0063520963 0.006150066 0.0072564944 -0.00059393764 0.0021982077 0.008268382 0.008997181 0.0048632487
0.0013431167 -0.0011676222 0.0037087542 0.0057277735 -0.00092708395 0.0020761737 0.0036922274 0.0035719813
0.006756307 -0.0013832529 -0.0010988064 0.0068694735 0.0077654095 0.002269819 0.0037958375 0.0054157055
0.002974563 0.0020965359 0.004742704 0.0057127154 0.00027817715 0.0020511064 0.006250894 0.005427509
0.0021745632 -0.00022187104 -0.0005886473 0.0015535541 0.0038651647 0.0007250307 -0.0010612872 -9.3960116e-05
0.00024752272 0.0038148302 0.0011756988 0.0009382105 0.0005784743 -0.0015695341 -0.004740303 -0.0048836772
0.0016919938 -0.0015951896 -0.0018518931 -0.004506998 0.00025268018 0.0011637539 -0.00039605255 -0.00042473263
-0.0013674309 -0.00038801186 -0.0010496278 0.002080055 0.00054151355 -0.000660761 -0.003060957 -0.0032758259
0.0011028537 0.0014523678 -0.0012139141 -0.002650644 -0.0020410798 -0.0020693988 -0.0024297757 0.000437241
0.0010467255 0.0039340123 -0.0036741702 -0.0039598932 0.0010759004 0.0005975171 0.005821115 -0.0011678458
-0.0065650363 0.00038712777 0.0007260039 0.002881802 -0.00066172983 -0.008021056 8.317584e-05 -0.00025713097
0.00030557494 5.997601e-05 -0.0035459714 0.00013988774 -0.0009914051 -0.001319584 0.00023841829 -0.00063227076
-0.0018189582 -0.0043860907 -0.005606064 -0.004536892 -0.0035437401 -0.0025787847 0.003034522 0.0015263936
-0.0018396575 -0.0014744581 0.0002488383 0.0034673628 0.0035457353 -0.0051921885 -0.0031341286 -0.00067434274
0.00023387349 0.0024983978 0.0008607641 -0.0017126703 -0.0015146805 -0.0015277448 -0.00016113807 -0.0014598765
-0.006223666 -0.00020882061 -0.00026199815 -0.00022365304 -0.00088636 -0.0006279597 2.2188146e-05 5.1769865e-05
0.00020521494 -4.752091e-05 0.0003923006 -0.00021967983 -0.00041051937 -5.8840495e-05 0.00013604359 0.0007635468
6.304446e-05 -4.5702218e-05 -0.00023506225 -0.000104159255 -0.00010814347 -1.0337601e-05 -9.283561e-05 -0.000118330405
-0.00014349254 -0.00022509068 -0.004265406 -0.003337778 0.0002743053 0.0028550318 0.00027776716 -0.0040029143

momentum_buffer f4 [16]
00000000: 076a f03a 38bb 273a c75d 833b 86ae 343c
00000010: 6432 ad3b 06da 2abb e7aa 9dbb fcab 11bb
00000020: ab0e 5cbb f392 31bb 8059 b33b e4b2 c1bb
00000030: 4cac 073c 2cae e93a 7d7c 90bb 00e9 3138
0.0018342145 0.0006398442 0.004008982 0.011027938 0.005285548 -0.0026069894 -0.004811633 -0.0022227755
-0.0033578079 -0.0027095645 0.0054733157 -0.005911218 0.008280825 0.0017828397 -0.0044093714 4.2417087e-05

momentum_buffer f4 [120, 400]
00000000: ca13 86bb 34e1 3ebb e8d9 1abb 7b10 a5bb
00000010: c3d9 85bb 3861 0bbb 80c4 80bb 0a13 9bba
00000020: af2b e4b7 2fa9 73b9 fc5e 16bb 9c82 77bb
00000030: 7178 e5ba 1419 a7b9 24ca 8fba 103e 23bb
00000040: abea 0ebb b0e0 b0ba e00c 17b8 26e6 ccba
00000050: fa07 b7ba d6f4 e6b9 c80e 1ab8 866f bcba
00000060: 8a5d 8aba bc31 17ba bed2 20ba 849d ccb8
00000070: b981 e8b5 0400 0000 cb65 96bb 1282 56bb
00000080: 906d 45ba 76e4 deb9 c5cf 5ab3 498c f3ba
00000090: 8bb9 81bb f6c6 2fb9 a14a edb4 aaff 5fb9
000000a0: 3e3d 89b9 89e8 bfba 31c7 b8b8 f2b1 a9b7
000000b0: 9414 5ab9 ec49 33bb 1c33 a7bb 1721 8bb9
000000c0: b26d 2fb9 75ec 7bb9 d6e9 a8b7 5848 a0b7
000000d0: 2274 bdb8 5dc6 3eb7 12d4 f0ba ded2 a7b9
000000e0: d481 75b9 8d8a 3fbb a2b1 59ba d4dd b4bb
000000f0: 93e3 1cba 74da 05bb dcb7 cebb cab8 2fbc
00000100: 6c35 adbb 14a9 b3ba 888f 14ba 0e4c cdb9
00000110: 6230 49bc 7f5a 10bb ff3a ceb9 6c62 e0b9
00000120: 2408 d0bb 22cd 55bb 6374 b1b9 55a7 b6b6
00000130: 5441 d639 3427 07b8 bcc1 01bc 5aaa dab9
00000140: 0c00 6338 d436 c739 981c 6e39 8aab ffba
00000150: 552b b7ba b931 66b8 9551 aab8 6f5d 7cbb
00000160: 9c48 32ba f23a a8ba 6c2f 7cb8 ccea 92bb
00000170: 27a5 39bb 5f2f 45b9 a7ed d737 bcbb b9b6
00000180: 3ae9 e4b9 7220 b6ba dc37 b138 30aa 76b9
00000190: 4bc7 fbb8 8d02 2ab9 c826 86b9 b860 83b7
000001a0: b19d 1fb8 3142 d1ba 367b 3dbb 16ce 07bb
000001b0: 6ba9 7fbb f5c6 6ebb 46f4 63ba 0017 82bb
000001c0: b1e6 c2ba 525a 4ebb 7b92 a0ba ed39 adb9
000001d0: 0954 b9b9 cc92 73ba 4c06 72ba 6751 24bb
000001e0: 432d 27b9 6dec 90ba b46d eebb b741 2dbb
000001f0: ca25 c5ba f8c8 05b9 9a6a 64ba 60de 1435
00000200: 1035 28b5 528f 5e35 42b9 daba f526 19b9
00000210: 7e39 1ab9 0bdf 4eb9 3669 b8ba f598 133a
00000220: b6bc 0eba 4dd0 35ba ae73 16b8 af2e 25bb
00000230: 61bc 4b39 75ec 86b9 8fd2 9bb8 49cd cdba
00000240: 889c 56bb 83ce 47bb 1063 72bb 7895 6cb8
00000250: c4fa 49bb b7d9 fcb9 22b8 0cbb 6e26 62bb
00000260: 852d fcbb 6394 d3bb 669a 0d38 1ed1 07bb
00000270: 7b99 68bb bb5f b9ba 1935 1cb8 923b 25b7
00000280: 5e6e 7eb6 f5dc 86b9 b5d3 0ab9 4f10 26b8
00000290: 4357 8fb7 26d9 16b9 45e3 3cba 68e3 deb9
000002a0: bae0 8830 09aa c132 811f 2eba 18a3 f8b9
000002b0: 60f5 b0b5 8e73 9a34 3849 9236 c034 9838
000002c0: af28 72bb f1c7 6fbb 925d f6ba e912 1bbb
000002d0: eef1 9cba 2546 81ba d1c1 2c39 e7c8 57b8
000002e0: 5a75 18bc b6dd 73b8 6133 7bba 82b4 b3ba
000002f0: 49f2 2839 3ae1 debb 7393 11bb 9c5f cfbb
00000300: 4ccf 8339 00fb 08bc 0b84 60ba 371b faba
00000310: e0d1 93ba 991e 7737 c936 d5bb e010 0eb9
00000320: e142 19ba 9f50 0fbb 0cd7 87bb 7bfc 3bbc
00000330: 6cf8 efbb 01c2 71b8 41c0 70bb 6474 d6bb
00000340: 5cfb 9ebb 6806 bcb9 3c04 4635 f0c0 fab8
00000350: 9bc8 06ba fb97 9537 95fc 99b8 a634 4ab8
00000360: 1655 8bb9 a2da 13ba 6c11 bfb9 e96c a5b9
00000370: 0407 11b8 c1e8 b6b9 3664 7fb9 5341 9eb9
00000380: 5b8e 99b9 4802 0bba 515d c4ba e35e c5ba
00000390: 0c54 66b9 703b 1636 8eae a4ba 94f0 f0bb
000003a0: c836 eaba fcc5 1ebb 3531 1db9 51eb b1ba
000003b0: 84c9 13bb c51f 6538 e25b c1b5 9c92 18b6
000003c0: 29b0 d1b8 b027 0a39 116a a9b5 4889 e0b9
000003d0: 2a43 86b9 29dd d4b9 164d fbbb 28a3 b4bb
000003e0: 83f3 89b9 bd54 29b9 babe 33b7 d6aa 7036
000003f0: ec1a 2eb6 5d79 b5b5 b2cd 7bb7 a0f5 1dba
-0.0040917145 -0.002912593 -0.0023628417 -0.005037365 -0.004084797 -0.0021267664 -0.0039296746 -0.0011831236
-2.720006e-05 -0.00023237312 -0.0022944799 -0.0037767058 -0.0017507208 -0.00031871407 -0.0010970277 -0.0024908818
-0.0021807353 -0.0013494696 -3.6013196e-05 -0.0015632554 -0.0013964169 -0.00044051436 -3.6730227e-05 -0.0014376498
-0.0010556441 -0.0005767604 -0.00061349187 -9.7568176e-05 -1.7323101e-06 6e-45 -0.0045897714 -0.0032731337
-0.00075312797 -0.00042513356 -5.0946046e-08 -0.0018581237 -0.003958886 -0.00016763419 -4.419899e-07 -0.0002136218
-0.00026176305 -0.0014641444 -8.810906e-05 -2.0229232e-05 -0.00020797766 -0.0027357293 -0.0051025283 -0.000265368
-0.00016730165 -0.00024025312 -2.0136049e-05 -1.9107174e-05 -9.033854e-05 -1.1371068e-05 -0.0018373749 -0.0003200983
-0.00023413385 -0.002922687 -0.00083043624 -0.005519608 -0.0005984839 -0.0020424398 -0.006308539 -0.0107252095
-0.0052859094 -0.0013707005 -0.000566714 -0.00039157312 -0.012279602 -0.0022026596 -0.00039335337 -0.0004279794
-0.0063486267 -0.003262349 -0.00033846786 -5.4435027e-06 0.00040865934 -3.222302e-05 -0.007919725 -0.00041707122
5.412106e-05 0.00037997088 0.00022708101 -0.0019506079 -0.0013974706 -5.488258e-05 -8.1214275e-05 -0.003850784
-0.0006800981 -0.001283495 -6.0125647e-05 -0.0044835564 -0.0028327198 -0.00018805031 2.5740663e-05 -5.535285e-06
-0.00043661316 -0.0013895168 8.450422e-05 -0.00023523788 -0.00012005734 -0.00016213414 -0.00025587366 -1.5661455e-05
-3.8055416e-05 -0.0015965161 -0.002891255 -0.0020722202 -0.0039010893 -0.0036434506 -0.00086957624 -0.003970027
-0.0014869777 -0.003148694 -0.0012250686 -0.0003304029 -0.0003534856 -0.0009291589 -0.00092325057 -0.0025072934
-0.00015943222 -0.0011056788 -0.007276261 -0.0026436874 -0.0015041169 -0.00012758735 -0.00087133946 5.5457895e-07
-6.2662093e-07 8.2910003e-07 -0.0016687291 -0.0001460573 -0.00014708002 -0.00019728781 -0.0014069441 0.00056303974
-0.000544499 -0.0006935641 -3.5870522e-05 -0.0025204828 0.00019429765 -0.00025734646 -7.4301955e-05 -0.0015701439
-0.0032747108 -0.003048808 -0.0036985315 -5.640599e-05 -0.0030819634 -0.00048227396 -0.0021472056 -0.003450777
-0.007695856 -0.006456898 3.3760814e-05 -0.0020724009 -0.0035491872 -0.001414291 -3.724275e-05 -9.848636e-06
-3.7913192e-06 -0.00025723097 -0.00013239573 -3.9592673e-05 -1.7087563e-05 -0.00014386009 -0.00072054967 -0.0004251257
9.959173e-10 2.254548e-08 -0.00066422677 -0.0004742376 -1.3184435e-06 2.8768812e-07 4.359663e-06 7.25775e-05
-0.003695052 -0.003658768 -0.0018796197 -0.0023662394 -0.0011973956 -0.0009862824 0.000164754 -5.14471e-05
-0.009305323 -5.81422e-05 -0.0009582546 -0.0013710412 0.00016111987 -0.0068017514 -0.002221313 -0.006328536
0.00025140715 -0.008360624 -0.0008564598 -0.0019081597 -0.0011277758 1.4729471e-05 -0.006506775 -0.00013548462
-0.00058464526 -0.0021868122 -0.0041455086 -0.01147377 -0.0073233154 -5.7639558e-05 -0.0036735686 -0.0065446366
-0.0048517417 -0.00035862927 7.376691e-07 -0.000119568664 -0.0005141587 1.7832956e-05 -7.3426556e-05 -4.8209586e-05
-0.0002657554 -0.0005640184 -0.0003644334 -0.00031552397 -3.4577228e-05 -0.0003488716 -0.00024356027 -0.0003018478
-0.00029288497 -0.0005302769 -0.0014981424 -0.0015058186 -0.00021965819 2.238634e-06 -0.0012564228 -0.007352898
-0.0017869109 -0.0024226895 -0.00014991018 -0.0013574158 -0.0022550533 5.4627442e-05 -1.4406362e-06 -2.2735103e-06
-9.998709e-05 0.0001317549 -1.2622351e-06 -0.00042826892 -0.00025608513 -0.00040600568 -0.0076691015 -0.005512614
-0.00026312107 -0.00016148663 -1.0713638e-05 3.5862226e-06 -2.594369e-06 -1.3520872e-06 -1.5008658e-05 -0.00060256757
